benchmark/benchmark_exp_details/SWAT/lstm/lstm_SWAT/LSTM_model.ckpt (torch_old, 226588 bytes, 10 tensors)

lstm.weight_ih_l0 f4 [256, 19]
0	0x3c65bbc3	0.014021817
1	0x3e195924	0.1497541
2	0x3da863a7	0.08222132
3	0xbbbfa35d	-0.005848332
4	0xbd981fc6	-0.07427935
5	0x3d32351f	0.04350769
6	0x3d524dfc	0.051343903
7	0x3d918127	0.07104712
8	0xbc94a324	-0.018144198
9	0x3cf82bba	0.030294288
10	0x3d129a53	0.035791706
11	0xbc838d22	-0.016058508
12	0x3d46a7b3	0.048499774
13	0x3dc87ab6	0.0978903
14	0x3db549ba	0.08851953
15	0x3cec6714	0.028857745
16	0x3ca98901	0.020695211
17	0x3dcf14bf	0.10111379
18	0x3d35cbf9	0.044383977
19	0xbdccbede	-0.099973425
20	0x3d7a1ae7	0.061060812
21	0xbd6f6930	-0.058449924
22	0x3dd438a4	0.10362366
23	0x3c8b0d25	0.016974041
24	0x3c2329b5	0.009958674
25	0xbdac8929	-0.08424599
26	0xbdfa4755	-0.12220637
27	0x3ddf588a	0.10905559
28	0xbda145be	-0.078746304
29	0xbdb70ba2	-0.08937766
30	0x3cb6e21c	0.022324614
31	0xbcf0be07	-0.029387487
32	0x3e28a305	0.16468437
33	0x3c195fd4	0.009361226
34	0xbc659c3e	-0.014014302
35	0xbde100b1	-0.1098646
36	0xbdb8ca14	-0.09022918
37	0xbe267279	-0.16254605
38	0x3d966e4b	0.073452555
39	0x3d837990	0.064196706
40	0x3d95bd95	0.073115505
41	0x3e0f4d87	0.13994418
42	0x3dc2bb80	0.09508419
43	0x3b7864a1	0.0037901776
44	0xbd8b3e3f	-0.06798982
45	0xbd917ddd	-0.07104085
46	0x3d496135	0.04916497
47	0x3d15b0e7	0.03654566
48	0x3bcd4987	0.0062648687
49	0x3e1779fe	0.1479263
50	0xbe229f39	-0.15881051
51	0x3dad4597	0.08460539
52	0xbd6bc73c	-0.05756305
53	0x3d469bb5	0.048488338
54	0xbd8d7d1d	-0.06908629
55	0x3dfd4710	0.1236707
56	0xbd1906a4	-0.03735985
57	0x3cc999bf	0.024609445
58	0x3d58fa0c	0.05297284
59	0x3dd85e8e	0.1056491
60	0x3b1fa13d	0.002435758
61	0x3e0c8174	0.13721257
62	0xbd3324b6	-0.043736182
63	0xbd43513c	-0.047684893
64	0x3df87519	0.121317096
65	0x3e222714	0.1583522
66	0x3d1a14a3	0.037617337
67	0x3cb4a598	0.022051618
68	0x3c8da00f	0.017288236
69	0xbdfcbe43	-0.12340977
70	0x3d3d3c54	0.04620011
71	0x3d0b944a	0.034076966
72	0x3bf5af43	0.0074976995
73	0xbe0190e8	-0.12652934
74	0xbdaba63c	-0.08381316
75	0xbd23a927	-0.039956238
76	0xbd4b0e43	-0.049574148
77	0xbc58fd32	-0.01324396
78	0xbdcfad7f	-0.10140514
79	0xbca5da50	-0.020245701
80	0x3d41301b	0.047165018
81	0x3e21774a	0.15768161
82	0x3c372e43	0.011180463
83	0xbdcafcb1	-0.09911478
84	0x3db6631b	0.089056216
85	0xbd6fc6ce	-0.058539204
86	0xbd560d11	-0.052258555
87	0xbc6dd38b	-0.014515768
88	0xbc9d73b0	-0.019220203
89	0xbe15b23b	-0.14618771
90	0xbe2f8bcd	-0.17143174
91	0xbe065b32	-0.13120726
92	0xbda3ac16	-0.07991807
93	0x3d2965f8	0.04135701
94	0x3d1cb395	0.0382572
95	0xbd6ab64f	-0.05730277
96	0x3d589b18	0.052882284
97	0xbd9d0c52	-0.076683655
98	0x3e2104e2	0.15724519
99	0x3e26032f	0.16212152
100	0x3df9be27	0.12194472
101	0x3d0d3788	0.034476787
102	0xbdceb514	-0.10093132
103	0x3d67d214	0.05659683
104	0xba57fb4a	-0.0008239044
105	0xbd0b6d18	-0.034039587
106	0x3d8bcf76	0.068266794
107	0x3d52577e	0.05135297
108	0xbae48cb4	-0.0017436952
109	0xbba5d6c3	-0.005061002
110	0xbda53326	-0.080663964
111	0x3d86f44c	0.06589565
112	0x3e0610e3	0.1309238
113	0xbd528f3c	-0.05140613
114	0xbdb68f52	-0.08914055
115	0xbdd20890	-0.102555394
116	0xbd9027da	-0.07038851
117	0xbdd70bfe	-0.10500334
118	0x3daf6c0c	0.0856553
119	0xbd9469d4	-0.072467476
120	0xbdf5e9c9	-0.120074816
121	0xbe0365f9	-0.12831868
122	0x3bfd72bb	0.007734624
123	0x3d5838b8	0.052788466
124	0x3d753a69	0.059870157
125	0xbd2e147e	-0.04250001
126	0x3d9ace3b	0.075588666
127	0xbdd01312	-0.101598874
128	0x3d8c9101	0.06863595
129	0x3d6b38d8	0.057427257
130	0xbc949527	-0.018137528
131	0x3cda1243	0.026620036
132	0xbdb174b4	-0.086648375
133	0x3e090e11	0.13384272
134	0x3d6996e8	0.05702868
135	0xbc39c002	-0.011337282
136	0xbca7884b	-0.020450732
137	0xbd178e6c	-0.03700106
138	0x3dfab138	0.12240833
139	0xbd6b1872	-0.05739636
140	0x3da9ebc8	0.08296925
141	0x3dd4df15	0.10394112
142	0x3ca94104	0.020660885
143	0xbe0eade9	-0.13933529
144	0x3dc0cbe1	0.09413887
145	0x3c0755e6	0.008260226
146	0xbbca8d9e	-0.006181433
147	0xbd959d23	-0.07305362
148	0x3afae9ff	0.0019143223
149	0x3bb512e2	0.0055259326
150	0x3e007e30	0.12548137
151	0xbd80918f	-0.06277763
152	0x3e0b0cb0	0.13579059
153	0x3cbaaa74	0.022786357
154	0x3d93a270	0.07208717
155	0x3d3b3ee3	0.04571427
156	0xbc1825d8	-0.009286366
157	0x3cf8a2e9	0.03035112
158	0xbce30d6c	-0.027716361
159	0x3dad43b2	0.084601775
160	0xbe142133	-0.1446579
161	0xbd5f2a91	-0.054483954
162	0x3c4a02a6	0.012329733
163	0x3d9afb05	0.075674094
164	0xbb134588	-0.0022471864
165	0xb9ecf5d7	-0.00045196593
166	0x3b6edddb	0.0036448154
167	0xbd26a77f	-0.04068708
168	0xbda456c0	-0.08024359
169	0x3e4a67cd	0.1976616
170	0xbd54ccf1	-0.05195326
171	0x3dc9d2d2	0.09854664
172	0xbcd6d2fd	-0.026223654
173	0x3de8ab17	0.11360758
174	0xbda1a426	-0.07892637
175	0xbd83063b	-0.06397673
176	0xbd42fa4e	-0.04760199
177	0xbc49d58b	-0.012318979
178	0xbbddd7ef	-0.006770126
179	0xbdcc1ebd	-0.099668
180	0x3dd2ff4f	0.103026025
181	0xbdafecee	-0.085901126
182	0x3e27b0e1	0.16376068
183	0xbd92fb7c	-0.07176873
184	0x3e131477	0.14363275
185	0xbd6b3ff5	-0.05743404
186	0xbdb27f71	-0.08715714
187	0x3dd5e228	0.104435265
188	0x3b37d3c0	0.0028049797
189	0xbdb59c9b	-0.08867761
190	0x3c867030	0.016410917
191	0xbd99aec6	-0.075040385
192	0x3deca1c2	0.1155429
193	0xbdba8981	-0.09108258
194	0xbe3ae6ed	-0.18252154
195	0x3e157529	0.14595474
196	0xbdf96e26	-0.12179212
197	0x3b70d7f6	0.0036749816
198	0xbc8df41f	-0.01732832
199	0x3db8cc22	0.0902331
200	0x3cdccac1	0.02695215
201	0x3ba5bbd3	0.005057791
202	0xbd295f8d	-0.04135089
203	0xbd3a1924	-0.045434132
204	0xbdc6a8be	-0.09700154
205	0xbdc3bb3a	-0.09557195
206	0x3d10bfd1	0.03533918
207	0xbda735f6	-0.08164589
208	0xbe0794f7	-0.1324042
209	0xbd51dca6	-0.051235817
210	0xbbb3fb8c	-0.005492633
211	0xbcdf5eca	-0.027266879
212	0x3d836601	0.0641594
213	0x3d8be662	0.068310514
214	0xbdad776a	-0.08470042
215	0x3bff5ff8	0.007793423
216	0x3e0b2bb5	0.13590892
217	0xbd07ad60	-0.033124328
218	0xbcfad561	-0.030619325
219	0x3db8ecae	0.09029518
220	0x3cd69c63	0.026197618
221	0xbd85b4c1	-0.06528617
222	0x3d7b1b5b	0.061305385
223	0xbd0a4c4b	-0.033764165
224	0xbcbaa457	-0.022783441
225	0x3d7262c1	0.05917621
226	0xbd8e915a	-0.06961317
227	0xbd36e1be	-0.04464888
228	0x3aec05eb	0.0018007135
229	0xbdab8537	-0.08375018
230	0xbd15fa69	-0.036615763
231	0x3dc6de69	0.0971039
232	0x3d95c539	0.07313008
233	0xbde26877	-0.11055081
234	0xbda758f0	-0.0817126
235	0xbb17828a	-0.0023118579
236	0xbd46e1e8	-0.048555285
237	0x3e02a2b6	0.12757382
238	0xbde36710	-0.11103642
239	0xbd612016	-0.05496224
240	0x3cbbadcc	0.022910021
241	0xbe3c0897	-0.18362652
242	0xbe094d49	-0.13408388
243	0x3c96a8a4	0.018390961
244	0x3d6a8972	0.057259984
245	0xbcb0e386	-0.021592867
246	0xbc947abf	-0.018124936
247	0x3d2a243d	0.041538466
248	0x3df2c463	0.11853864
249	0xbadc0748	-0.0016786838
250	0x3d0079e6	0.03136625
251	0x3e48cb12	0.19608715
252	0x3d9896d8	0.07450646
253	0xbe2f9f7e	-0.17150685
254	0xbdad6a3a	-0.08467527
255	0xbca563f1	-0.020189257

lstm.weight_hh_l0 f4 [256, 64]
0	0xbe0ac6f9	-0.13552465
1	0xbc28ab43	-0.010294738
2	0x3d317fcb	0.043334763
3	0xbd6ff0b4	-0.05857916
4	0xbd9a0043	-0.07519581
5	0xbdd90bd0	-0.10597956
6	0x3da76368	0.08173257
7	0xbd886345	-0.06659559
8	0x3dc4ff4a	0.09619005
9	0xbdd4ce3b	-0.10390898
10	0x3b8a89d2	0.0042278552
11	0xbdfb8a0a	-0.12282188
12	0xbe0158cb	-0.12631528
13	0x3c10496b	0.008806567
14	0xbbdf9d8f	-0.0068242024
15	0xbdde472d	-0.108534195
16	0x3d35ecdb	0.044415336
17	0xbc03190d	-0.008001578
18	0xbc861e74	-0.016371943
19	0xbd85f82b	-0.06541475
20	0x3dbd3bea	0.09239943
21	0xbe0d6fdd	-0.13812204
22	0xbcee2dcb	-0.02907457
23	0x3ccadeb7	0.024764402
24	0x3da26424	0.079292566
25	0xbdff2f2b	-0.124601685
26	0x3cbab55b	0.022791555
27	0xbcb9c5c5	-0.022677312
28	0x3d8dcae5	0.06923465
29	0xbd824447	-0.06360679
30	0xbdbcce2f	-0.09219014
31	0xbcef371d	-0.029201085
32	0x3e01841b	0.1264805
33	0x3d260c94	0.04053934
34	0xbd66fd35	-0.05639382
35	0xbccd94f1	-0.025095435
36	0xbda8973f	-0.08231973
37	0x3c3e884b	0.011629174
38	0xbe3748bb	-0.17898838
39	0x3d50b785	0.050956268
40	0xbc2308de	-0.009950845
41	0xbd470b46	-0.048594736
42	0x3d3f103b	0.046646338
43	0xbd45566c	-0.04817812
44	0xbdf7425a	-0.120732024
45	0x3c8983ab	0.016786417
46	0x3d0b17b1	0.03395814
47	0x3cd54410	0.026033431
48	0x3d487a1b	0.048944574
49	0x3e15444f	0.14576839
50	0xbc0a52ef	-0.0084426245
51	0x3af2873b	0.0018503437
52	0x3c567cdb	0.013091291
53	0x3d8b4efe	0.06802176
54	0xbd8671dc	-0.06564686
55	0x3dab1e6c	0.08355412
56	0xbdb08c71	-0.08620537
57	0x3d979eb1	0.07403315
58	0xbd91eeec	-0.07125649
59	0x3b3f7855	0.002921601
60	0xbcb86d3c	-0.022513025
61	0x3dc6fb95	0.09715954
62	0xbe0a7eda	-0.13524953
63	0xbd724671	-0.05914921
64	0xbd77b46b	-0.060474794
65	0x3d7ddc23	0.061977517
66	0xbdc1c233	-0.09460869
67	0x3d869360	0.06571078
68	0x3d378dda	0.044813015
69	0x3cafd7f0	0.021465272
70	0x3d6b910c	0.057511374
71	0x3de3bcf9	0.11120028
72	0xbc810c7e	-0.015753027
73	0x3ca90612	0.020632777
74	0x3dc8f54a	0.0981241
75	0x3d3c0ed2	0.04591257
76	0xbcbaaf71	-0.022788735
77	0xbcfe5e17	-0.031050725
78	0xbd9103b2	-0.07080783
79	0xbd6ee0a8	-0.058319718
80	0xbd74e984	-0.05979301
81	0x3d1b1ccb	0.037869256
82	0x3d97d1a3	0.07413032
83	0xbd65d31f	-0.056109544
84	0xbd87a13f	-0.06622552
85	0xbd5453e1	-0.051837806
86	0x3c8aad0d	0.01692822
87	0x3d097ffe	0.03356933
88	0xbd7f6d9b	-0.062360387
89	0xbd7a7943	-0.0611508
90	0xbd8c9b88	-0.06865603
91	0x3b1331cd	0.0022460104
92	0x3d8bb9aa	0.06822522
93	0x3d76ead9	0.060282562
94	0xbce4871c	-0.027896456
95	0x3d88234f	0.066473596
96	0x3da2f1f6	0.07956307
97	0xbc19b082	-0.009380462
98	0xbc57f979	-0.0131820375
99	0x3e0ae3f9	0.13563527
100	0x3dec9d8e	0.11553489
101	0xbcd1562c	-0.025553785
102	0x3d3ceb3a	0.046122767
103	0x3baa4ab9	0.005196896
104	0xbd8b014c	-0.06787357
105	0xbd45c9bb	-0.04828809
106	0xbccedc39	-0.025251495
107	0xbda76f61	-0.08175541
108	0x3e1e7994	0.15476066
109	0xbc98dd9b	-0.018660357
110	0xbdf8e61b	-0.12153264
111	0xbdb7ceae	-0.08974968
112	0x3c23f989	0.010008224
113	0x3db43fd4	0.08801237
114	0x3dc755d9	0.09733171
115	0xbd31c89e	-0.043404214
116	0xbd38c5f5	-0.04511066
117	0xbd96e49a	-0.07367821
118	0xbd036794	-0.0320812
119	0xbb131c13	-0.0022447153
120	0xbc5ec89d	-0.013597635
121	0xbe11ea7e	-0.14249608
122	0xbdc96405	-0.0983353
123	0xbe14a574	-0.1451624
124	0x3ca49e5c	0.020095043
125	0xbdcc3c4a	-0.09972437
126	0xbd6cbc95	-0.057797033
127	0xbcd70806	-0.026248943
128	0xbdf3582d	-0.118820526
129	0x3db55524	0.0885413
130	0x3e45cdab	0.19316737
131	0xbcb5d8a3	-0.022198027
132	0x3d44ed31	0.048077766
133	0xbd1dbaaa	-0.038508095
134	0xbcd2b3c4	-0.025720485
135	0x3dec87e6	0.11549358
136	0xbd096300	-0.03354168
137	0xbe129d12	-0.1431773
138	0xbe31fac1	-0.17380811
139	0xbd0c5215	-0.034257967
140	0x3d6377fb	0.055534344
141	0x3e2667a6	0.16250476
142	0xbdaea417	-0.085273914
143	0xbe0207a5	-0.12698229
144	0xbd155f6f	-0.036467966
145	0xbd02acae	-0.03190296
146	0x3d0527f0	0.03250879
147	0x3dc0c72b	0.09412988
148	0xbe0bc6b6	-0.13650021
149	0xbd92d073	-0.07168665
150	0xbd6cdcbe	-0.057827704
151	0xbd39ae5a	-0.04533229
152	0x3d05fc29	0.03271118
153	0xbd47978d	-0.048728514
154	0x3d88744b	0.06662806
155	0x3e1a20b3	0.15051536
156	0x3da8e800	0.082473755
157	0x3e29b732	0.1657379
158	0xbc8dd94b	-0.017315527
159	0x3cbf41c7	0.023346795
160	0x3b4c7dbf	0.003120288
161	0x3d8ff86a	0.07029803
162	0x3ddac263	0.106816076
163	0x3d122628	0.03568092
164	0xbdd3e7e8	-0.10346967
165	0x3ba12ab9	0.004918423
166	0x3da34876	0.07972805
167	0xbd0f260f	-0.034948405
168	0x3e040951	0.12894179
169	0x3d23cf64	0.039992705
170	0xbdbe4bd5	-0.092918076
171	0x3ce25c2f	0.027631847
172	0x3e07d4b4	0.13264734
173	0x3ded6920	0.11592317
174	0xbcb1faab	-0.021725973
175	0x3d885c79	0.06658263
176	0xbe26faa5	-0.16306551
177	0xbd30ac07	-0.043132808
178	0xbca429c6	-0.02003945
179	0xbcfe4011	-0.031036409
180	0x3daf6340	0.08563852
181	0x3d84798d	0.064684965
182	0x3d2a7bb4	0.04162188
183	0x3ddf6b7c	0.10909173
184	0xbb0748e3	-0.002064281
185	0xbdf1a15b	-0.11798354
186	0x3d66feaf	0.05639523
187	0xbd3c196e	-0.04592269
188	0xbd4fd2c4	-0.05073811
189	0x3e2dc269	0.16968693
190	0xbd012b0e	-0.0315352
191	0xbdd21261	-0.10257412
192	0xbde7a2e2	-0.11310364
193	0x3d8ca208	0.068668425
194	0xbd6830ed	-0.056687284
195	0x3d7195eb	0.058980864
196	0xbd8b9b52	-0.068167344
197	0xbce9edef	-0.028555838
198	0x3cdd4858	0.027012035
199	0x3e19ee7c	0.15032381
200	0x3d30192f	0.042992767
201	0x39e4597c	0.0004355422
202	0xbe1f99f6	-0.15586075
203	0x3dc370c8	0.09542996
204	0xbdef4665	-0.116833486
205	0x3e03b326	0.12861308
206	0xbded4d4f	-0.11587011
207	0xbdedaea5	-0.116055764
208	0xbdc78ca0	-0.09743619
209	0xbd446296	-0.04794558
210	0xbe028eff	-0.12749861
211	0xbe0a9593	-0.1353362
212	0x3cb2f08f	0.021843223
213	0xbc0b4055	-0.008499225
214	0x3b73b2fa	0.0037185536
215	0xbcb30f3b	-0.021857848
216	0xbd414566	-0.047185324
217	0xbd9e5894	-0.07731739
218	0x3dbd3630	0.09238851
219	0xbd96d7be	-0.07365368
220	0xbc06d0c5	-0.0082284855
221	0xbe0c9a80	-0.13730812
222	0xbd9e1fcc	-0.077209085
223	0x3d8f9528	0.07010871
224	0xbdc4da68	-0.0961197
225	0x3d9519c4	0.07280305
226	0x3ce5e0a0	0.028061211
227	0xbcf7d3fb	-0.030252447
228	0xbd8d69d9	-0.069049545
229	0xbd083e68	-0.03326264
230	0x3d79dc87	0.061001327
231	0x3cfd73cd	0.030939007
232	0xbcf60778	-0.030032858
233	0x3d22790b	0.039666217
234	0x3d3cca84	0.04609157
235	0x3d056f92	0.032577105
236	0x3bcc2574	0.0062300507
237	0x3e127a21	0.14304401
238	0x3e009718	0.12557638
239	0x3c9cac0a	0.019125003
240	0x3b63c8e9	0.0034757203
241	0x3e2cae56	0.16863379
242	0xbcd26924	-0.0256849
243	0x3df67826	0.12034635
244	0x3d3bb8a7	0.045830395
245	0x3d233cfe	0.03985309
246	0xbb1cc549	-0.0023921302
247	0x3e0b7e36	0.13622364
248	0x3db4436d	0.08801923
249	0xbbf94fe6	-0.0076084016
250	0xbdba7ca3	-0.09105804
251	0xbbc32ffa	-0.005956647
252	0xbe0223e0	-0.12708998
253	0x3d828f71	0.063750155
254	0x3d2df3e3	0.042468917
255	0xbd3bccc1	-0.045849565

lstm.bias_ih_l0 f4 [256]
0	0x3da1d51f	0.07901978
1	0x3e094a65	0.13407286
2	0xbd77335d	-0.06035172
3	0xbd57bf57	-0.05267271
4	0x3db4125e	0.08792566
5	0xbd173999	-0.036920164
6	0x3e08bf6a	0.13354269
7	0x3e0f1e5b	0.13976423
8	0x3e05b7c7	0.13058387
9	0xbc93891a	-0.018009711
10	0x3dab3b14	0.08360878
11	0xbc9797f3	-0.018505072
12	0x3e01389f	0.12619255
13	0x3e371552	0.17879227
14	0x3e04645a	0.12928906
15	0xbc966906	-0.018360626
16	0xbd489cf8	-0.048977822
17	0x3e0c50c8	0.1370269
18	0x3db9716d	0.090548374
19	0x3e1aed92	0.15129688
20	0x3df1080a	0.117691115
21	0x3c7f2208	0.0155720785
22	0x3e128065	0.14306791
23	0x3da92df6	0.082607195
24	0x3d5d3d5b	0.05401359
25	0x3de223b7	0.11041968
26	0x3c93297b	0.017964115
27	0x3dbeba87	0.09312921
28	0x3d544b57	0.051829662
29	0x3be38d2f	0.0069443206
30	0x3db56326	0.08856802
31	0x3d15fa35	0.03661557
32	0x3c65834b	0.014008353
33	0x3d90ebce	0.07076226
34	0x3df14cab	0.117822014
35	0xbd88f7c8	-0.066878855
36	0x3dbc4388	0.09192568
37	0xbce43250	-0.027856022
38	0xbda3dd78	-0.08001226
39	0x3d70b216	0.058763586
40	0x3d6fa243	0.058504354
41	0x3d319310	0.04335314
42	0xbc4af4ad	-0.012387437
43	0x3e23d622	0.15999654
44	0xbd742db0	-0.059613883
45	0x3d0bf9ba	0.034173705
46	0xbc314686	-0.010820037
47	0xbd1896dc	-0.037253246
48	0x3e08fa9c	0.1337685
49	0xbd4d960f	-0.050191935
50	0xbd513ffb	-0.051086407
51	0x3b0fcfc1	0.00219439
52	0x3a6b3973	0.0008973099
53	0xbcf3493f	-0.029698012
54	0xbd0bcfbd	-0.03413366
55	0x3d9588a3	0.07301452
56	0x3da0f2c7	0.07858806
57	0xbc864832	-0.016391847
58	0x3e2b176d	0.16708155
59	0x3e08fcbf	0.13377665
60	0x3df743cc	0.12073478
61	0x3d7f45a8	0.06232229
62	0x3d90cb89	0.07070071
63	0x3d94c00f	0.07263195
64	0x3b97284a	0.004612957
65	0x3bc9d769	0.006159712
66	0x3dbebd6c	0.09313473
67	0xbd0d3f80	-0.034484386
68	0x3e297ef3	0.16552334
69	0x3d76b8d5	0.060234863
70	0x3c20fdbf	0.009826123
71	0xbd931bc6	-0.07183032
72	0xbb04e542	-0.002027825
73	0x3b7cabbf	0.0038554517
74	0xbd1778cf	-0.036980446
75	0x3d0aae36	0.033857547
76	0x3dc4b7ea	0.09605391
77	0x3bc9086b	0.0061350367
78	0x3d956ea6	0.07296495
79	0x3de50108	0.11181837
80	0x3dcc454b	0.09974154
81	0x3c11b12f	0.0088923415
82	0x3e17b5a3	0.14815383
83	0x3d4e4bed	0.050365377
84	0x3b22ca92	0.002483998
85	0xbd6af1ec	-0.05735962
86	0x3dfe863f	0.12427949
87	0x3c35fea0	0.011108071
88	0xbccc011e	-0.024902876
89	0x3c9100a3	0.017700499
90	0xbc422836	-0.011850407
91	0x3d85e5f2	0.06537999
92	0x3c261b10	0.010138288
93	0xbd1f924f	-0.03895789
94	0x3c8ccac7	0.017186536
95	0x3e04fbc6	0.12986669
96	0xbd0ac9a6	-0.033883713
97	0x3ddce1c4	0.10785249
98	0x3db5665d	0.08857415
99	0x3d25b626	0.040456913
100	0x3d8c8cd5	0.06862799
101	0xbdc61a5e	-0.09672998
102	0x3d85b3ea	0.065284565
103	0x3c149640	0.0090690255
104	0x3df5d19a	0.12002869
105	0x3e3009a1	0.17191173
106	0x3df53167	0.119723134
107	0xbd26ddc4	-0.040738836
108	0xbda89f4e	-0.0823351
109	0x3ca99b26	0.020703863
110	0x3d2c17d5	0.042014915
111	0xbbadc00d	-0.0053024353
112	0x3d582b8e	0.052775912
113	0x3c44582e	0.011983914
114	0x3d86e361	0.06586338
115	0x3d825eb2	0.06365718
116	0x3dc656c3	0.09684517
117	0x3e26761e	0.16255996
118	0xbd56c10b	-0.052430194
119	0xbba3d130	-0.0049993023
120	0xbdb658ad	-0.08903632
121	0xbc5134b7	-0.012768916
122	0xbd005ccd	-0.0313385
123	0xbd9d018c	-0.07666311
124	0x3da6e18e	0.0814849
125	0xbd7165f0	-0.058935106
126	0x3db3b6de	0.087751135
127	0xbc1926bc	-0.009347614
128	0xbdd99a3c	-0.10625121
129	0x3d29b137	0.04142877
130	0xbd09d075	-0.033646066
131	0x3d81b928	0.06334144
132	0xbb10021c	-0.0021973914
133	0x3df0bf63	0.11755254
134	0xbce84b0b	-0.028356096
135	0x3db27789	0.08714206
136	0xbc529f21	-0.012855322
137	0xbc6c9edd	-0.014442173
138	0xbda308ab	-0.07960638
139	0x3e017023	0.12640433
140	0xbd02e3ed	-0.03195565
141	0xbc36db40	-0.011160672
142	0xbdd63c47	-0.10460716
143	0xbd4265a0	-0.0474602
144	0x3d16cfdd	0.036819328
145	0x3bf0e44d	0.0073514343
146	0xbdee9ddc	-0.11651203
147	0xbd64b72b	-0.055838745
148	0xbd195c0e	-0.037441306
149	0xbe223da0	-0.1584382
150	0xbdbc7940	-0.09202814
151	0x3df35e3c	0.11883208
152	0x3d124658	0.035711616
153	0xbdf7b890	-0.120957494
154	0xbddfc885	-0.10926918
155	0x3dc621f7	0.09674447
156	0xbd898101	-0.06714059
157	0xbe040849	-0.12893786
158	0xbc9ab88d	-0.018886829
159	0xbd969659	-0.07352895
160	0xbdcb688f	-0.09932052
161	0xbd7d78cd	-0.061882783
162	0x3dfc53a6	0.12320642
163	0x3e0384e9	0.1284367
164	0x3dd5a59e	0.104319796
165	0xbd4ee088	-0.0505071
166	0xbcee2eac	-0.02907499
167	0x3dba3363	0.090918325
168	0x3cbc7a78	0.023007616
169	0x3cea4b42	0.028600339
170	0xbdacebbb	-0.084433995
171	0x3db67a64	0.08910063
172	0xbceca33d	-0.028886432
173	0x3dc15b71	0.09441269
174	0xbda33167	-0.07968407
175	0x3dfddb13	0.12395301
176	0xbc4761cf	-0.0121693155
177	0x3de8ae88	0.11361414
178	0x3dab0d30	0.08352125
179	0x3d9a5363	0.07535436
180	0x3d4e29de	0.050332896
181	0x3d187435	0.0372202
182	0x3d4e6b8d	0.050395537
183	0x3db9126f	0.09036719
184	0x3bbce8d7	0.0057650614
185	0xbae87d52	-0.0017737544
186	0xbde0aa70	-0.109700084
187	0xbc0b652c	-0.008508008
188	0xbda966dc	-0.08271572
189	0xbbb9e5fe	-0.005673169
190	0xbcc5f3cc	-0.024164103
191	0x3d56808b	0.052368682
192	0x3e23857c	0.15968889
193	0x3d761471	0.06007809
194	0x3e2f55cf	0.17122577
195	0x3d678be0	0.05652988
196	0x3d1ff509	0.039052043
197	0x3e33aadd	0.17545648
198	0xbb1c65b8	-0.002386434
199	0xbda95169	-0.08267481
200	0xbd759cfd	-0.05996417
201	0x3dfe1e78	0.12408155
202	0x3d6b8585	0.05750038
203	0x3db49d40	0.088190556
204	0xbdc1f0dc	-0.094697684
205	0xbc989b37	-0.0186287
206	0xbca07170	-0.019585341
207	0xbdb49738	-0.08817905
208	0xbd1a427c	-0.03766106
209	0x3dde30c9	0.10849149
210	0x3bbae030	0.0057029948
211	0x3db65bfa	0.08904262
212	0x3c29f268	0.010372736
213	0x3c4c7e67	0.012481309
214	0xbd2c1825	-0.042015214
215	0x3ce351ca	0.027748961
216	0x3cfbc74d	0.030734682
217	0x3db8ad37	0.09017413
218	0x3e0a03cc	0.13478011
219	0xbda34550	-0.07972205
220	0x3dfffd4d	0.12499485
221	0x3cbf37d0	0.023342043
222	0x3e1ce19e	0.15320441
223	0x3d1374fe	0.036000244
224	0x3e15f1a0	0.14642954
225	0xbb8d86af	-0.004319034
226	0x3d1f2b68	0.038859755
227	0xbd83d200	-0.06436539
228	0x3c071ae7	0.00824616
229	0x3dd9af18	0.106290996
230	0x3bc9a3d0	0.006153561
231	0xbda5c96d	-0.080950595
232	0x3c67c20f	0.014145388
233	0x3da3d6ff	0.079999916
234	0x3d8db114	0.069185406
235	0x3e036b59	0.12833919
236	0x3e16a615	0.14711793
237	0x3dba000c	0.0908204
238	0x3d688f33	0.05677719
239	0xbcd49e98	-0.02595453
240	0x3d7eceeb	0.06220905
241	0x3ce3fb18	0.027829692
242	0x3cfed4c8	0.031107321
243	0x3def2d13	0.11678519
244	0x3ddb194e	0.10698186
245	0x3ac5cad9	0.001509036
246	0x3cbd4372	0.02310345
247	0xbc536730	-0.01290302
248	0x3dcda0b5	0.10040418
249	0x3d3758dd	0.04476248
250	0x3ba2dd23	0.004970209
251	0x3e108d12	0.14116314
252	0x3e3106e1	0.1728778
253	0x3c93869b	0.01800852
254	0xbd16f922	-0.036858685
255	0x3db8971e	0.09013198

lstm.bias_hh_l0 f4 [256]
0	0x3dfa5c62	0.12224652
1	0xbd9cd72d	-0.07658229
2	0xbd8531d4	-0.065036446
3	0xbd38d571	-0.04512543
4	0x3dee01b0	0.116214156
5	0x3e0e2059	0.13879527
6	0xbd4042f0	-0.046938837
7	0x3e0056ff	0.12533186
8	0xbd7bd05e	-0.06147801
9	0x3dfa5df5	0.12224952
10	0x3c8bb4ba	0.01705395
11	0x3c396a1a	0.0113168005
12	0x3cb4e55b	0.022082021
13	0xbcb62a3f	-0.022236941
14	0x3d1ca9d4	0.0382479
15	0x3df6999b	0.12041017
16	0xbd324ed5	-0.04353221
17	0x3d9c67b2	0.07636966
18	0x3d1d0685	0.038336296
19	0x3dd5c994	0.104388386
20	0xbd0501e3	-0.032472502
21	0x3d96d627	0.07365065
22	0xbd930cb1	-0.07180155
23	0xbd92998c	-0.07158193
24	0x3db3fddc	0.08788654
25	0x3d1d0a79	0.038340066
26	0xbc471005	-0.012149815
27	0x3d2f9d9a	0.04287491
28	0x3cc50401	0.02404976
29	0x3e40429f	0.18775414
30	0x3e28a658	0.16469705
31	0x3dd763f9	0.10517115
32	0xbd2d49e3	-0.042306792
33	0x3d0967a2	0.033546098
34	0xbd3f9a6c	-0.046778128
35	0x3df338c3	0.11876061
36	0x3cbe7020	0.023246825
37	0x3d8db4d5	0.069192566
38	0x3e142798	0.14468229
39	0xbd157c1a	-0.036495306
40	0x3e02426b	0.12720649
41	0x3d988578	0.07447332
42	0xbd1a37fe	-0.037651055
43	0x3e030af7	0.12797152
44	0x3a53e443	0.0008083025
45	0x3dde4714	0.10853401
46	0xbd8d96b7	-0.06913512
47	0x3c0fef56	0.0087850895
48	0xbd3ff8d9	-0.04686818
49	0xbd9b953c	-0.075968236
50	0xbcbaa734	-0.022784807
51	0xbd6c1396	-0.057635866
52	0x3dafd5fd	0.08585737
53	0x3df1965e	0.117962584
54	0x3c1f2b62	0.009714933
55	0x3db6e73c	0.08930823
56	0x3c27cb00	0.01024127
57	0x3e0d1b87	0.13780032
58	0x3da1f881	0.079087265
59	0xbc1973aa	-0.009365955
60	0x3b6bdd12	0.0035989922
61	0xbcd6615d	-0.026169473
62	0x3dfe4187	0.12414842
63	0xbd81d0b2	-0.063386336
64	0xbc51bc39	-0.012801223
65	0x3c97294d	0.018452311
66	0x3d2a8423	0.04162992
67	0x3cd9520e	0.026528385
68	0x3e1f41d4	0.15552455
69	0x3d8f8e81	0.07009602
70	0xbd841be9	-0.06450636
71	0xbd36ed7e	-0.044660084
72	0x3e255396	0.16145167
73	0x3e069c77	0.13145624
74	0x3e05c700	0.13064194
75	0x3d78aea6	0.060713433
76	0xbdc3871f	-0.09547257
77	0x3e240f35	0.16021426
78	0xbce40cd6	-0.027838152
79	0x3dbd652b	0.09247812
80	0xbd96ea81	-0.07368947
81	0x3dd5fcd2	0.10448612
82	0xbdc3918e	-0.09549247
83	0x3e27950d	0.16365452
84	0x3de85c22	0.11345698
85	0xbd4c7080	-0.049911976
86	0x3d166cb2	0.036724754
87	0x3e14d4c5	0.1453429
88	0x3dc8612b	0.09784158
89	0x3cdda28c	0.027055047
90	0xbc7a2f74	-0.015270103
91	0x3d90cefe	0.070707306
92	0x3cfdbc0e	0.03097346
93	0x3e54bc50	0.2077496
94	0x3d61a7d4	0.055091694
95	0xbdcccd98	-0.100001514
96	0xbcae1e05	-0.021254549
97	0x3d778281	0.060427193
98	0xbd61f081	-0.055161003
99	0x3d86700c	0.0656434
100	0x3dbbc0e5	0.09167651
101	0x3ce00543	0.027346259
102	0x3d4c8748	0.0499337
103	0xbd7b0e96	-0.061293207
104	0x3c5ab80e	0.013349546
105	0xbd14cb9e	-0.036326997
106	0x3df67326	0.120336816
107	0x3c6bf913	0.014402646
108	0x3df0391a	0.11729641
109	0x3cceb9d0	0.025235087
110	0x3df88f69	0.12136728
111	0xbd07f057	-0.03318819
112	0xbc8bac7e	-0.017050024
113	0x3dab225f	0.08356165
114	0xbd8c4859	-0.06849737
115	0xbd41e9cd	-0.04734211
116	0x3d446ac9	0.0479534
117	0xbb938e52	-0.00450305
118	0x3c16dc25	0.00920776
119	0x3deb57ec	0.11491379
120	0xbcc9f7a9	-0.024654226
121	0x3cc25c9e	0.023725804
122	0x3d0ccae1	0.034373168
123	0x3d1b4452	0.037906952
124	0x3dae6357	0.08515041
125	0xbdc90bad	-0.0981668
126	0x3c983387	0.018579258
127	0x3d8c19ab	0.06840833
128	0x3d4d819d	0.050172437
129	0x3a8af1f0	0.0010600667
130	0x3d4483ef	0.047977384
131	0x3e06470c	0.1311304
132	0xbd23f352	-0.04002697
133	0xbd7458b5	-0.05965491
134	0x3cec7dfb	0.028868666
135	0xbb231f79	-0.0024890585
136	0x3d10915d	0.03529488
137	0xbe04e0ea	-0.12976423
138	0xbdbc86f0	-0.09205425
139	0xbd8a42a2	-0.067509905
140	0xbd672177	-0.0564284
141	0x3db3bb39	0.08775944
142	0xbdb6a9dd	-0.089191176
143	0x3d0080da	0.031372882
144	0x3da3768a	0.07981594
145	0xbda450e5	-0.08023242
146	0xbe254c46	-0.16142377
147	0x3c326176	0.010887494
148	0xbc367651	-0.011136607
149	0xbd998451	-0.074959405
150	0xbd79cf70	-0.060988843
151	0xbda0261c	-0.07819769
152	0xbe040369	-0.12891926
153	0x3d6378d3	0.05553515
154	0x3dd3110e	0.10305987
155	0x3d39b3dc	0.045337543
156	0xbd7d2580	-0.06180334
157	0x3ca83b2b	0.020536026
158	0x3d26cc9e	0.040722482
159	0x3dd11a2b	0.10210069
160	0x3ddad0d8	0.10684365
161	0xbcad5cb9	-0.021162378
162	0x3cd8e558	0.026476547
163	0x3dcf44f2	0.10120572
164	0x3d995dc2	0.07488586
165	0x3d96280c	0.07331857
166	0xbdbd720f	-0.092502706
167	0x3da79791	0.08183206
168	0x3d800dac	0.06252608
169	0x3e1b8f15	0.151913
170	0x3ae2027f	0.0017243176
171	0x3dcb8924	0.09938267
172	0x3dfd8ea3	0.123807214
173	0x3d8b3991	0.06798089
174	0x3c0a73af	0.008450433
175	0x3e0cf9d3	0.13767175
176	0xbd8cd7e4	-0.06877115
177	0x3dbdb947	0.092638545
178	0xbd1b0d72	-0.03785462
179	0xbd59a946	-0.053139947
180	0xbc914649	-0.01773371
181	0x3d133ac1	0.035944704
182	0x3e12dcf7	0.14342104
183	0x3d868f5a	0.06570311
184	0x3ccce9a7	0.025013758
185	0x3db24bb6	0.08705847
186	0x3d8f46ac	0.069959015
187	0xbc084c6c	-0.008319002
188	0xbe0b8742	-0.13625816
189	0xbc70f1b2	-0.014706062
190	0x3c636162	0.013878198
191	0xbdadf8c5	-0.08494715
192	0x3d827b16	0.06371133
193	0x3da16098	0.07879752
194	0x3d39cf5f	0.04536378
195	0x3e0e1ab5	0.13877375
196	0xbc0c7cab	-0.008574645
197	0x3c98d3c5	0.018655667
198	0x3dd1144a	0.10208948
199	0xbc658a6d	-0.014010054
200	0x3e1acc3f	0.15116976
201	0x3aca8b83	0.0015452955
202	0xbda166fa	-0.07880969
203	0x3c12ad02	0.008952381
204	0xbc1d9daa	-0.00962011
205	0x3e0acd64	0.13554913
206	0xbd061efd	-0.032744396
207	0x3d38c968	0.04511395
208	0x3ddc8011	0.10766614
209	0xbd62418c	-0.05523829
210	0xbd022373	-0.03177209
211	0xbd5025f7	-0.050817456
212	0x3ccb9c3f	0.024854777
213	0x3d919aa5	0.07109574
214	0x3de38d33	0.11110916
215	0x3d8de055	0.069275536
216	0xbd88de76	-0.06683056
217	0x3c8bf2f1	0.017083617
218	0xbda4781d	-0.08030722
219	0x3d9d98f4	0.07695189
220	0x3da852dc	0.08218929
221	0x3e482b03	0.19547658
222	0x3d72a0e9	0.059235487
223	0x3cc93f8c	0.024566434
224	0x3cc8676c	0.024463378
225	0x3db1c71e	0.08680557
226	0xbd4fc1d8	-0.050721973
227	0x3cfca858	0.030841991
228	0xbd6a7080	-0.057236195
229	0x3de948a9	0.11390812
230	0x3dac7670	0.08421028
231	0xbda53fa7	-0.08068781
232	0xbd8e07a7	-0.06935053
233	0x3cdbab24	0.026815005
234	0x3ca3314d	0.01992097
235	0x3e26e3a6	0.16297778
236	0x3dce3d46	0.10070281
237	0xbd077ac4	-0.033076063
238	0xbd8209d0	-0.06349528
239	0xbd9de659	-0.07709951
240	0x3e1179a3	0.14206557
241	0xbdc8c360	-0.0980289
242	0xbdb51f81	-0.088438995
243	0xbcc9cd74	-0.0246341
244	0xbdaa68f7	-0.08320802
245	0xbc8d4707	-0.017245783
246	0x3db4e3bb	0.08832499
247	0x3d82a358	0.063788116
248	0x3d10304c	0.03520231
249	0x3d301a69	0.042993937
250	0x3dcd34a2	0.100198045
251	0x3c64bae8	0.013960578
252	0x3d1e997f	0.038720604
253	0x3e253452	0.1613324
254	0xbc966854	-0.018360294
255	0xbc22157e	-0.009892819

lstm.weight_ih_l1 f4 [256, 64]
0	0x3e1ef456	0.15522894
1	0x3d9dd531	0.07706679
2	0x3ddcfc70	0.10790336
3	0x3c03bc8a	0.008040557
4	0xbe15c5da	-0.14626256
5	0xbcf24149	-0.029572146
6	0x3e0cebbf	0.13761805
7	0xbd931018	-0.07180804
8	0xbbc8a4ee	-0.006123177
9	0xbcf4a08f	-0.029861717
10	0x3ddc2186	0.107485816
11	0xbd9738e0	-0.07383895
12	0x3de15d4c	0.11004123
13	0x3dee872b	0.11646875
14	0x3c3e6606	0.011621004
15	0xbb5a272d	-0.003328751
16	0x3b88e3e8	0.004177559
17	0x3c074c94	0.008258004
18	0xbdfd8dbb	-0.123805486
19	0x3d41d79a	0.047324754
20	0x3d855807	0.065109305
21	0xbdd34040	-0.10314989
22	0xbd13d0e6	-0.036087893
23	0x3e03bab5	0.12864192
24	0xbde975dc	-0.11399433
25	0xbdd67b03	-0.104726814
26	0x3bca894e	0.006180919
27	0xbcfc32ff	-0.030786036
28	0x3db9a009	0.090637274
29	0x3daded2b	0.08492502
30	0xbcc40c48	-0.023931637
31	0x3cd0f2e3	0.025506442
32	0x3e1fcb81	0.15604974
33	0x3d8db87a	0.06919952
34	0xbc58ad37	-0.013224891
35	0x3d06ce2d	0.03291147
36	0x3da495e9	0.080364056
37	0x3dd11729	0.102094956
38	0x3cfe3659	0.031031774
39	0x3da90e8e	0.08254729
40	0x3c0c608f	0.008567943
41	0x3dc987aa	0.09840329
42	0xbdb85d19	-0.09002132
43	0x3d7184bb	0.058964472
44	0x3d86c43b	0.06580397
45	0x3d7674ce	0.060169987
46	0xbd859ea4	-0.06524399
47	0xbbe9ea1c	-0.0071385037
48	0x3dd33ee7	0.10314732
49	0x3d2764b4	0.040867522
50	0xbca643c0	-0.020295978
51	0x3c5d2cb9	0.013499432
52	0x3e028055	0.12744267
53	0xbd353917	-0.0442439
54	0x3d0eb508	0.034840614
55	0x3dc21d68	0.09478265
56	0x3c85ea81	0.016347172
57	0xbd6b01bf	-0.057374712
58	0x3da0e389	0.07855899
59	0x3d1cb9b3	0.038263034
60	0xbd9ccd7e	-0.07656382
61	0x3dda1429	0.106483765
62	0xbdbc70bf	-0.09201192
63	0xbde0e9f2	-0.109821215
64	0x3d60a87b	0.054848175
65	0xbc7486a5	-0.01492468
66	0xbdb5a117	-0.08868616
67	0x3e2cfa77	0.1689242
68	0x3c918e83	0.01776815
69	0x3e0d5c79	0.13804807
70	0xbde93cba	-0.11388536
71	0x3d9dc025	0.07702664
72	0x3db176ca	0.08665235
73	0x3ddf98bf	0.10917806
74	0xbd7b80a6	-0.061401986
75	0x3da203fe	0.07910918
76	0xbdd340d6	-0.10315101
77	0x3c224aa4	0.009905491
78	0xbc0d3abe	-0.008619962
79	0xbd31ce58	-0.043409675
80	0x3dbf2d68	0.093348324
81	0x3cce9a28	0.025219992
82	0xbc51f3e5	-0.012814497
83	0xbd313aa7	-0.043268826
84	0xbd151854	-0.036400154
85	0x3d2fe895	0.042946417
86	0x3c5e60aa	0.013572851
87	0x3de83e7d	0.11340044
88	0x3de8fab5	0.113759436
89	0x3dcd6279	0.10028548
90	0x3b9dfbf3	0.0048212945
91	0xbda59aed	-0.080861904
92	0xbc15553a	-0.009114558
93	0xbc1e00ce	-0.009643747
94	0x3e148170	0.14502501
95	0xbcf86dde	-0.030325826
96	0x3e093f92	0.13403156
97	0x3d12e1ce	0.035859875
98	0x3d8a8282	0.06763174
99	0x3e019020	0.12652636
100	0xbd158b22	-0.03650964
101	0x3d93b81b	0.0721285
102	0xbca2dcfb	-0.019880762
103	0xbd67f48e	-0.05662971
104	0xbd756baf	-0.05991715
105	0xbbbce747	-0.005764875
106	0xbe07c5cb	-0.13259046
107	0x3b179ada	0.002313307
108	0xbd32f97e	-0.043694966
109	0xbda4eaa2	-0.08052565
110	0xbdd5e308	-0.104436934
111	0x3de90edb	0.113797866
112	0x3caad642	0.02085412
113	0xbd1d2ecc	-0.038374707
114	0xba058972	-0.00050940283
115	0xbc2324d3	-0.00995751
116	0xbdcf383a	-0.10118146
117	0xbd5aaece	-0.053389363
118	0xbd89834b	-0.06714495
119	0x3e180edb	0.14849417
120	0xbd4ee1e6	-0.050508402
121	0x3dfe5d57	0.12420147
122	0xbc869126	-0.016426634
123	0x3d3676a9	0.044546757
124	0xbd9e8e3e	-0.07741974
125	0xbcc27038	-0.02373515
126	0xbe229925	-0.15878733
127	0x3cd7506b	0.026283463
128	0xbe20207f	-0.15637396
129	0xbd3d96c9	-0.046286378
130	0x3dd4fa91	0.10399354
131	0x3c82e3d2	0.015977774
132	0x3c961f73	0.018325543
133	0xbcc74536	-0.024324995
134	0xbd0ffc2a	-0.03515259
135	0x3e002376	0.12513527
136	0x3db1a861	0.08674694
137	0xbd2ffbca	-0.042964734
138	0xbde8c4a1	-0.11365629
139	0xbd854260	-0.06506801
140	0xbe2064b5	-0.15663417
141	0x3e2b59d6	0.16733488
142	0x3c124b7e	0.008929132
143	0xbd6d1619	-0.057882402
144	0x3d716711	0.058936182
145	0xbc5da980	-0.0135291815
146	0xbe1f6a27	-0.15567838
147	0x3dbf8152	0.09350838
148	0xbdccd2b2	-0.100011244
149	0x3dd257af	0.102706306
150	0xbd07c30e	-0.033145003
151	0xbdee430b	-0.11633881
152	0xbdb1952e	-0.08671032
153	0xbd4812c0	-0.048846006
154	0xbdf9211c	-0.12164518
155	0xbd6ddef8	-0.058073968
156	0x3dcafca2	0.09911467
157	0x3ddd5be8	0.10808545
158	0xbda771be	-0.081759915
159	0x3e0ec49b	0.13942187
160	0xbce5666d	-0.028002942
161	0xbd14db01	-0.03634167
162	0xbd99e058	-0.07513493
163	0x3d6eb346	0.058276437
164	0x3e14017d	0.14453693
165	0x3d521e20	0.05129826
166	0xbc8750eb	-0.016518077
167	0xbd2d473d	-0.042304266
168	0x3cc81b86	0.024427187
169	0x3d8f4d24	0.06997135
170	0xbcc32798	-0.02382259
171	0x3b8c98db	0.0042906827
172	0xbe2c2880	-0.16812325
173	0x3dc87f13	0.097898625
174	0xbcd41e9f	-0.025893508
175	0x3b896fee	0.0041942513
176	0x3dd09856	0.10185306
177	0x3da4e1a8	0.08050853
178	0xbda96428	-0.082710564
179	0x3de2a7fb	0.11067196
180	0x3e1934ef	0.14961599
181	0x3ceca815	0.028888742
182	0x3df876c6	0.12132029
183	0xbd10c5a3	-0.03534473
184	0x3d147610	0.036245406
185	0x3d84bb8d	0.06481085
186	0xbddda409	-0.10822303
187	0xbd701de4	-0.058622256
188	0xb8278825	-3.9942697e-05
189	0x3cdc945b	0.02692621
190	0x3c6b3817	0.014356635
191	0x3ca4b04e	0.0201036
192	0xbe19202e	-0.14953682
193	0x3d9456e9	0.07243139
194	0x3e34217a	0.17590895
195	0x39c0d196	0.00036777247
196	0xb971bba8	-0.00023053458
197	0xbd3d69aa	-0.046243347
198	0xbd7c073d	-0.06153034
199	0x3d913492	0.07090105
200	0xbdd190e1	-0.102327116
201	0xbe197d58	-0.14989221
202	0x3d186545	0.037205953
203	0xbcc5e176	-0.02415536
204	0x3db452a3	0.08804824
205	0x3d65e65c	0.05612789
206	0x3bbe3990	0.005805202
207	0x3d160791	0.03662831
208	0x3d97065a	0.07374258
209	0x3c7cce86	0.015430098
210	0xbd9d72aa	-0.07687886
211	0x3d46144e	0.048359208
212	0xbe206a82	-0.1566563
213	0xbd9d5a3a	-0.07683225
214	0xbcc12b3a	-0.023580182
215	0xbd3d420e	-0.046205573
216	0xbdcfe6cc	-0.10151443
217	0xbd0b5302	-0.03401471
218	0xbd9c277d	-0.07624719
219	0x3d647a4d	0.055780698
220	0x3dcae11f	0.0990622
221	0xbd09fc31	-0.033687774
222	0x3dddbbb0	0.10826814
223	0x3d6047d0	0.054755986
224	0xbd6cf326	-0.057849072
225	0xbcfdf942	-0.031002644
226	0x3df2ab66	0.11849098
227	0x3dc1a6eb	0.09455665
228	0x3be05c1b	0.0068469173
229	0x3da6030e	0.081060514
230	0xbcbea095	-0.02326993
231	0x3d24cf97	0.040237036
232	0xbe110922	-0.1416364
233	0x3e1220d9	0.14270343
234	0xbce96285	-0.02848936
235	0xbaecd4fc	-0.0018068845
236	0xbdb33246	-0.08749823
237	0xbd3c9748	-0.04604271
238	0x3db0a776	0.08625691
239	0x3ddf94f1	0.1091708
240	0xbe205719	-0.15658225
241	0xbb31bbc3	-0.0027119971
242	0xbd99939b	-0.07498857
243	0x3e08abc1	0.13346769
244	0x3cb8ef89	0.022575157
245	0x3de5b86f	0.112168185
246	0x3da91251	0.08255447
247	0xbd4decc9	-0.050274644
248	0x3d7fa2da	0.062411167
249	0xbdf47246	-0.119358584
250	0x3d20e190	0.039277613
251	0x3c1eb80b	0.009687434
252	0x3bfecad9	0.007775646
253	0x3d82d4c7	0.0638824
254	0x3d03f828	0.032219082
255	0x3d5c04d0	0.053715527

lstm.weight_hh_l1 f4 [256, 64]
0	0x3dba7452	0.091042176
1	0x3d83524b	0.064121805
2	0x3de1e3d9	0.110297866
3	0xbda1562c	-0.07877764
4	0x3d7243ab	0.059146564
5	0xbdcc8868	-0.09986955
6	0xbd69ef6a	-0.05711309
7	0x3d789742	0.060691126
8	0x3cae3805	0.021266947
9	0xbd9b1b92	-0.07573618
10	0xbd59c879	-0.0531697
11	0x3dfd17bf	0.12358045
12	0x3db191b1	0.086703666
13	0xbcdad9d5	-0.026715199
14	0x3d115b7e	0.035487644
15	0x3cf54c99	0.029943751
16	0x3d40a703	0.047034275
17	0xbdc7048a	-0.09717663
18	0xbc5eb063	-0.013591859
19	0x3c89de0a	0.01682951
20	0xbdab42dc	-0.08362362
21	0xbcdb2354	-0.026750244
22	0x3d3710f3	0.0446939
23	0x3d3a5f5e	0.045501105
24	0x3dc9d093	0.098542355
25	0xbe0ef6b1	-0.13961293
26	0xbd119bf9	-0.035549138
27	0x3dc30ec4	0.09524301
28	0x3d76a37c	0.060214505
29	0xbc9d558e	-0.019205835
30	0xbdc13abc	-0.09435031
31	0xbdb32064	-0.087464124
32	0x3dfd4959	0.123675056
33	0x3ddf6553	0.10907998
34	0x3d1c9e2d	0.038236786
35	0x3aa048d8	0.001222874
36	0xbd204d46	-0.039136194
37	0xbe20e201	-0.15711214
38	0xbdddfdc4	-0.108394176
39	0xbbae8e3f	-0.0053270156
40	0xbdcc1323	-0.099645875
41	0x3bcd204a	0.0062599527
42	0xbd2954d4	-0.041340664
43	0xbdf7153f	-0.12064599
44	0xb896ce8b	-7.191029e-05
45	0x3dc3f752	0.09568657
46	0xbdbc23bc	-0.09186503
47	0x3cd217a8	0.025646046
48	0xbd3a8744	-0.045539156
49	0x3dc07abd	0.093984105
50	0xbda7c346	-0.08191542
51	0x3db306f4	0.087415606
52	0x3c8562f5	0.016282538
53	0x3d176a38	0.036966532
54	0x3d1d037c	0.0383334
55	0x3e15fd71	0.14647461
56	0xbd62dd08	-0.055386573
57	0x3cba783a	0.022762407
58	0xbcf0ec42	-0.029409532
59	0x3e1ab30e	0.15107366
60	0xbd8302fb	-0.06397053
61	0x3e1192e5	0.14216192
62	0xbdc1baf6	-0.09459488
63	0xbc6d4888	-0.014482625
64	0xbc8875e6	-0.01665778
65	0x3d48afe1	0.048995856
66	0xbdb00adb	-0.085958205
67	0xbdb6d94a	-0.08928163
68	0x3e2e1521	0.17000248
69	0x3da4c58d	0.08045492
70	0x3de5fbf6	0.11229698
71	0x3e06be53	0.1315854
72	0x3d745a46	0.059656404
73	0xbdf9fe85	-0.12206749
74	0x3d414353	0.047183346
75	0x3d0f7717	0.035025682
76	0xbd51a31a	-0.051180936
77	0x3d12587e	0.035728924
78	0xbd9e65e2	-0.07734276
79	0xbd073c37	-0.03301641
80	0x3d46403d	0.048401106
81	0xbd0cbd88	-0.03436044
82	0xbdd8a30d	-0.105779745
83	0x3db3ba7a	0.08775802
84	0xbb4e9a8f	-0.003152523
85	0xbe06b521	-0.13155033
86	0x3cb4c170	0.022064894
87	0xbd28879b	-0.04114495
88	0x3cb399c2	0.021923903
89	0x3cf38998	0.029728696
90	0x3d8140b6	0.06311171
91	0x3ceb2bde	0.028707441
92	0xbd8f7915	-0.070055164
93	0xbd57176a	-0.052512564
94	0xbd8baacd	-0.06819687
95	0x3d3851e7	0.044999983
96	0x3db7954a	0.089640215
97	0x3c85dd4d	0.016340876
98	0xbd954bd7	-0.07289856
99	0x3d3b3495	0.045704443
100	0xbc4b8466	-0.012421703
101	0xbcc3ff8c	-0.023925565
102	0xbcb727df	-0.02235788
103	0x3e0585a8	0.13039267
104	0xbd787898	-0.060661882
105	0xbe039c85	-0.12852676
106	0xbd404eb7	-0.04695007
107	0xbdb6b51f	-0.08921265
108	0x3d8ea12d	0.069643356
109	0x3ca5422b	0.020173153
110	0xbd3cae34	-0.04606457
111	0xbd1d3793	-0.038383078
112	0xbd8c449a	-0.06849022
113	0x3d938836	0.072037145
114	0x3e06eb4c	0.13175696
115	0xbdafe6d9	-0.085889526
116	0x3ca2664f	0.019824175
117	0xbd8f9fab	-0.07012876
118	0xbd9823ff	-0.07428741
119	0x3cce627b	0.025193444
120	0x3e135f0d	0.14391728
121	0x3dda92fc	0.10672566
122	0xbe1e5a93	-0.15464239
123	0x3e317af4	0.17332059
124	0x3d3127f5	0.043250997
125	0xbd77efaa	-0.060531296
126	0xbe0770ad	-0.13226576
127	0xbcd6eca7	-0.026235892
128	0x3dd37703	0.10325434
129	0xbd56b8cd	-0.052422334
130	0x3d6e81d3	0.05822928
131	0x3b353749	0.002765136
132	0x3c356926	0.011072433
133	0x3c1e9781	0.009679676
134	0x3d424544	0.047429338
135	0x3e1ed1ad	0.15509672
136	0xbbf7fb37	-0.007567789
137	0xbd315913	-0.04329784
138	0x3d7ebff8	0.062194794
139	0x3d95d078	0.07315153
140	0xbd697558	-0.056996673
141	0xbc97b9b4	-0.018521167
142	0x3d8132a2	0.063084856
143	0x3ceefe8c	0.029174112
144	0xbdc6c85d	-0.09706185
145	0x3e011784	0.12606627
146	0x3d3291cd	0.043596078
147	0xbdba170f	-0.09086429
148	0xbd125781	-0.03572798
149	0xbd579c7c	-0.05263947
150	0xbce46ad1	-0.027882965
151	0x3d202e6e	0.03910678
152	0xbd5cf233	-0.053941917
153	0x3dcbfd9b	0.09960481
154	0x3de1096e	0.10988127
155	0x3e44cbf5	0.19218428
156	0x3d96c270	0.07361305
157	0x3d92805f	0.07153391
158	0x3cac2916	0.021015685
159	0xbe20403f	-0.15649508
160	0x3d24bdc7	0.04022005
161	0x3e4f9a3f	0.20273684
162	0x3dd2b110	0.10287678
163	0x3dc6c85b	0.097061835
164	0x3d7631e8	0.060106188
165	0x3d505de0	0.050870776
166	0x3db81c8b	0.08989819
167	0x3d83f6f5	0.06443588
168	0xbdbf88db	-0.09352275
169	0x3cdb5e58	0.026778385
170	0x3db46825	0.088089265
171	0x3de2dced	0.110772945
172	0x3e026c66	0.12736663
173	0xbddac32c	-0.10681757
174	0x3db7653f	0.08954858
175	0x3dbb8907	0.09156995
176	0x3d0b88f5	0.03406616
177	0xbd0a256b	-0.03372709
178	0x3e247770	0.16061187
179	0xbdb0def2	-0.086362734
180	0xbc4b3c4e	-0.0124045145
181	0x3dbfdb76	0.09368031
182	0xbdb1f678	-0.08689588
183	0xbd825efb	-0.06365772
184	0xbd02b073	-0.031906556
185	0x3db8b3e4	0.090186864
186	0xbe38480e	-0.17996237
187	0x3e695a28	0.22788298
188	0xbceeff66	-0.029174518
189	0x3db0aa9f	0.086262934
190	0xbdb20f27	-0.08694296
191	0x3cce8a77	0.02521251
192	0xbc8676b4	-0.016414024
193	0x3dc47f80	0.09594631
194	0x3d0821e8	0.03323546
195	0x3d13f478	0.036121815
196	0x3be3ed41	0.006955773
197	0x3d909447	0.07059532
198	0xbdba0caf	-0.090844505
199	0xbe27a308	-0.16370785
200	0xbd7fe54b	-0.06247453
201	0xbdf88efe	-0.121366486
202	0x3bb8481c	0.0056238305
203	0x3de748d9	0.112931915
204	0x3d02ee23	0.031965386
205	0x3d804cc8	0.06264645
206	0xbdc9753c	-0.09836814
207	0xbd4a7d38	-0.049435824
208	0xbd80b45a	-0.06284399
209	0x3daa47aa	0.0831445
210	0xbe03f00a	-0.12884536
211	0xbdcd50eb	-0.100251995
212	0xbb9605ac	-0.004578313
213	0x3c10f5df	0.008847683
214	0x3d3c3139	0.04594538
215	0x3e0d02d9	0.13770618
216	0x3e088a64	0.13334042
217	0xbe21f04a	-0.15814319
218	0x3dfa9dc4	0.12237123
219	0x3c324cf4	0.010882605
220	0x3dd6c087	0.104859404
221	0x3c87c192	0.016571794
222	0xbdbd59ad	-0.0924562
223	0x3d8e5872	0.06950463
224	0x3d3175cf	0.04332524
225	0x3b84813b	0.004043726
226	0xbe16a3de	-0.14710948
227	0x3e0eee99	0.13958205
228	0xbd88c01f	-0.06677269
229	0xbdbc6174	-0.09198275
230	0x3bcf4c87	0.0063262614
231	0x3dbce71c	0.09223768
232	0xbe0870bf	-0.13324259
233	0x3d8e9f5e	0.06963991
234	0x3def9edc	0.11700222
235	0x3cb77226	0.022393297
236	0x3d95c2bd	0.07312534
237	0xbe11e166	-0.14246139
238	0xbd1ff237	-0.039049353
239	0xbd33b304	-0.043871894
240	0xbde43556	-0.111429855
241	0xbe17c8b1	-0.14822651
242	0x3d9c8152	0.076418534
243	0xbdac316a	-0.084078625
244	0x3d84c719	0.06483287
245	0xbd927a91	-0.07152284
246	0xbde138d2	-0.10997166
247	0xbd5e1e34	-0.054228023
248	0x3e0a3265	0.13495786
249	0x3e217f85	0.15771301
250	0x3cb9b40d	0.022668863
251	0x3dc8b62c	0.098003715
252	0xbd80c186	-0.06286912
253	0x3dbee522	0.09321047
254	0xbd56813a	-0.052369334
255	0x3e26c4d7	0.16286026

lstm.bias_ih_l1 f4 [256]
0	0x3e0a7c40	0.1352396
1	0x3c972877	0.018451912
2	0x3d47896e	0.048715048
3	0xbd83ffe9	-0.06445295
4	0xbc2f4c5e	-0.01069936
5	0x3d86ebee	0.06587969
6	0xbd0bd1d0	-0.03413564
7	0xbca5b61f	-0.020228444
8	0x3e114dbb	0.14189808
9	0x3da6147f	0.08109378
10	0xbc629e33	-0.013831663
11	0x3d537282	0.051622875
12	0xbdc47813	-0.09593215
13	0xbd056dcc	-0.032575414
14	0x3dba53fe	0.090980515
15	0x3e08b842	0.13351539
16	0xbb4620a1	-0.003023185
17	0x3e13ff93	0.14452963
18	0xbdb30501	-0.08741189
19	0xbcc0f189	-0.023552673
20	0xbcfea4fa	-0.031084526
21	0x3e0657ba	0.13119403
22	0xbc6bc3d5	-0.014389952
23	0xbdc285cd	-0.09498177
24	0xbd9238f5	-0.0713977
25	0x3ddf9429	0.10916931
26	0xbcdec01b	-0.027191212
27	0x3d46e489	0.04855779
28	0x3db21f7d	0.08697412
29	0xbc0566dd	-0.0081422
30	0x3e0d098b	0.13773172
31	0xbcdabb31	-0.026700588
32	0x3e148cac	0.14506787
33	0xbd2977c2	-0.041373976
34	0x3dc23450	0.09482634
35	0xbdb4ff43	-0.0883775
36	0xbdd411a7	-0.103549294
37	0x3c52be0b	0.012862693
38	0x3dbf3a97	0.09337347
39	0x3cdca1d6	0.026932638
40	0x3e0904a0	0.1338067
41	0x3ceb0abe	0.028691646
42	0xbd4cc7ec	-0.049995348
43	0x3c436c41	0.011927665
44	0xbd37aa77	-0.044840302
45	0xbd78716b	-0.06065504
46	0x3da8c55a	0.08240767
47	0x3db9c47d	0.0907068
48	0xbd7dfd99	-0.062009428
49	0x3d47558b	0.048665565
50	0x3d4ddf2d	0.050261665
51	0x3d77f260	0.06053388
52	0x3dca84eb	0.09888633
53	0x3ca10786	0.019656908
54	0x3e015626	0.1263052
55	0x3ddb65f7	0.107128076
56	0x3d973704	0.0738354
57	0x3a014a6d	0.000493205
58	0xbcc3f50a	-0.023920555
59	0xbd8479df	-0.064685576
60	0xbd9ae0a5	-0.07562379
61	0xbda34ae8	-0.079732716
62	0xbcf746f5	-0.030185202
63	0xbd30e54d	-0.04318743
64	0x3d0243a0	0.031802773
65	0x3db738a4	0.0894635
66	0x3df6b371	0.120459445
67	0x3e052de1	0.13005783
68	0x3dbdc771	0.09266556
69	0xbc68b23d	-0.014202652
70	0x3de36174	0.11102572
71	0x3df16dcb	0.117885195
72	0xbd987f98	-0.074462116
73	0x3d92e663	0.07172849
74	0x3dd91f07	0.10601621
75	0x3e07d30b	0.132641
76	0x3cbc618e	0.022995736
77	0xbcf12ac3	-0.029439336
78	0xbd4f294e	-0.0505765
79	0x38a16094	7.695067e-05
80	0x3c994d94	0.01871375
81	0x3e0f9b0d	0.14023991
82	0xbde87f92	-0.11352457
83	0x3c11ab5c	0.008890953
84	0x3dd0cec9	0.10195691
85	0x3cfce052	0.030868683
86	0x3d105c9d	0.035244573
87	0xbc866a42	-0.01640809
88	0xbd9c327e	-0.07626818
89	0x3d73976f	0.05947059
90	0x3d1d42cc	0.03839378
91	0x3c3e5669	0.0116172815
92	0xbd83935b	-0.0642459
93	0x3cfd3e97	0.030913634
94	0xbbaf24a4	-0.005344944
95	0x3db570de	0.08859418
96	0x3e0083a4	0.12550217
97	0x3bcdfa02	0.006285907
98	0x3de21bec	0.11040482
99	0x3e03abdf	0.12858532
100	0x3d3226f1	0.04349417
101	0x3df602d5	0.12012259
102	0xbddc8d4c	-0.10769138
103	0x3d67b2d0	0.056567013
104	0xbc818f43	-0.015815383
105	0x3cc147b5	0.023593763
106	0x3c491962	0.012274118
107	0x3dd30ca8	0.10305148
108	0x3cc22c1a	0.02370267
109	0x3db59544	0.08866361
110	0xbde2accb	-0.11068114
111	0x3dd543a7	0.10413294
112	0x3e24466a	0.16042486
113	0x3de4ef6e	0.1117848
114	0x3c883f3c	0.016631715
115	0x3e11f8af	0.14255022
116	0x3ddec5d5	0.10877577
117	0xbd5e2aa9	-0.054239903
118	0xbd94e32a	-0.072698906
119	0x3ddb098f	0.106951825
120	0xbdc32ad3	-0.095296524
121	0xbd83b305	-0.0643063
122	0xbd59b321	-0.053149346
123	0x3c3f8e22	0.011691602
124	0x3d70683d	0.05869316
125	0x3dfe33e8	0.12412244
126	0x3d093e5b	0.033506732
127	0x3d0d2138	0.034455508
128	0x3e195436	0.1497353
129	0x3db6170c	0.088911146
130	0xbc10feea	-0.008849839
131	0x3d8f5d0b	0.070001684
132	0xbc8fabf0	-0.01753804
133	0x3d37f74d	0.04491358
134	0xbd35356b	-0.044240396
135	0x3ccaafa7	0.02474196
136	0xbccdabbb	-0.025106302
137	0xbe12e6db	-0.14345877
138	0xbd269d09	-0.040677104
139	0x3cf26c81	0.029592754
140	0x3dab966b	0.08378299
141	0x3d60fa31	0.0549261
142	0x3d9f7a64	0.07787016
143	0xbcbc924e	-0.023018982
144	0xbde05780	-0.10954189
145	0x3de0a2b9	0.10968537
146	0xbd888ef5	-0.06667892
147	0x3d999229	0.07498581
148	0xbe020b87	-0.1269971
149	0xbd8ad941	-0.06779719
150	0x3c733189	0.014843353
151	0x3ddd3efc	0.10803029
152	0x3d631d9e	0.055448167
153	0xbda113d9	-0.07865114
154	0x3df7e994	0.12105098
155	0xbd4d2bd3	-0.050090622
156	0x3c514def	0.0127749285
157	0x3d620dc3	0.055188905
158	0xbd10efba	-0.03538487
159	0xbe0aada5	-0.13542803
160	0x3c5b3828	0.013380088
161	0xbdf394a4	-0.11893585
162	0xbdc32e13	-0.09530272
163	0x3e02207c	0.12707704
164	0x3cd88ad0	0.026433378
165	0xbd891763	-0.06693914
166	0x3b80ac11	0.003926762
167	0xbcaf61a6	-0.021408867
168	0xbd8d33a4	-0.06894615
169	0xbe049fe0	-0.12951612
170	0x3dadc7d3	0.08485379
171	0x3df11d29	0.1177314
172	0xbd4af52d	-0.049550224
173	0xbd349343	-0.044085752
174	0x3d55186b	0.05202524
175	0x3d915d77	0.07097905
176	0xbd684569	-0.05670682
177	0x3d32368c	0.04350905
178	0x3ced3fc3	0.028961068
179	0xbe131329	-0.14362778
180	0x3dab3316	0.08359353
181	0xba88c352	-0.0010434187
182	0x3d93d2d8	0.0721795
183	0x3e125dd7	0.1429361
184	0x3dac933d	0.08426521
185	0x3defdeea	0.11712439
186	0x3c087947	0.008329696
187	0xbd41ec96	-0.047344767
188	0x3dac3611	0.0840875
189	0x3c4d1f41	0.012519659
190	0xbd3d9608	-0.04628566
191	0xbdd8a9dc	-0.10579273
192	0xbd0c0a7c	-0.034189686
193	0xbdb70776	-0.0893697
194	0x3e1695ea	0.14705625
195	0x3ddbf5be	0.10740231
196	0x3dea779b	0.11448594
197	0x3d41651d	0.04721557
198	0xbd3a516e	-0.045487814
199	0x3c961340	0.018319726
200	0xbcefabab	-0.029256662
201	0x3d9da176	0.07696812
202	0x3d96ad6c	0.07357296
203	0x3ca7cc90	0.020483285
204	0x3e117aa9	0.14206947
205	0x3e15a01e	0.14611861
206	0x3e07b6aa	0.13253275
207	0x3cb236fc	0.021754734
208	0x3e0b1ff1	0.13586403
209	0x3dfc6ba3	0.123252176
210	0xbd94732f	-0.07248532
211	0x3e01e2cc	0.12684172
212	0x3bf75e9b	0.0075491196
213	0x3d1fbf71	0.039000932
214	0xbd9c3667	-0.07627564
215	0x3d5e5d0c	0.054287955
216	0x3ca4c51f	0.020113526
217	0x3bc01f60	0.005863115
218	0x3bc2ce5c	0.00594501
219	0xbd45d3b9	-0.048297618
220	0xbd4f51ad	-0.050615
221	0xbd4fd38e	-0.050738864
222	0x3da37774	0.07981768
223	0xbd538e0e	-0.051649146
224	0x3dc793da	0.09744997
225	0x3df81987	0.12114244
226	0x3df7224b	0.12067088
227	0xb59fd5ec	-1.1908683e-06
228	0xbd08fb70	-0.033442914
229	0xbd9877e8	-0.07444745
230	0x3d871700	0.06596184
231	0xbc82a906	-0.015949737
232	0xbd54f6ee	-0.051993303
233	0x3e2624ff	0.1622505
234	0x3d2357bb	0.03987859
235	0xbd108736	-0.035285197
236	0x3d207be7	0.039180662
237	0x3d3b7250	0.045763314
238	0xbd1c5bc5	-0.038173456
239	0x3e0b4a7e	0.13602635
240	0x3c2414fd	0.01001477
241	0xbdae1fe7	-0.08502179
242	0x3e138874	0.14407521
243	0x3dfa59c4	0.12224153
244	0x3d9d7bb3	0.076896094
245	0xbcf56752	-0.029956494
246	0xbd166063	-0.036713015
247	0x3c26eba0	0.010188013
248	0xbc994e66	-0.018714141
249	0x3cbb4cbd	0.02286374
250	0xbaac6239	-0.0013151831
251	0x3d2c19c8	0.042016774
252	0x3e208858	0.15677011
253	0x3d44ee59	0.04807887
254	0x3c6066e9	0.013696411
255	0x3da1603b	0.07879683
