benchmark/benchmark_exp_details/SWAT/ganf/ganf_SWAT/model.pt (torch, 50089 bytes, 19 tensors)

rnn.weight_ih_l0 f4 [128, 1]
-0.020971695 0.1846733 0.084843576 -0.035204936 -0.105950154 -0.0073017464 0.105747245 0.090345174
0.026036557 0.0015836577 0.07056642 -0.049768407 0.07605979 0.1031471 -0.020377086 0.020677717
0.027435636 0.1804596 -0.017141202 -0.13982096 0.12352616 -0.026733443 0.10024796 0.034955055
0.01603623 -0.12997323 -0.11654627 0.09509908 -0.08378166 -0.083276145 0.018536344 0.009835282
0.112350404 -0.05546462 0.002597264 -0.07457451 -0.034661096 -0.066094235 0.06309356 0.052416425
0.02487141 0.06337428 0.13826203 0.057366483 0.0056925253 -0.11305801 -0.046988346 -0.0015584024
0.077760555 0.17914541 -0.16966726 0.08091049 -0.05245524 0.119909525 0.026820173 0.12561478
-0.008113011 -0.013538657 0.06798098 0.08915877 -0.0063455887 0.12593223 -0.064679265 0.057516333
0.12786658 0.1689897 0.059138138 0.052026667 -0.0073294463 -0.09752188 0.011922486 0.09566099
-0.009767615 -0.15409185 -0.16743211 -0.09170409 -0.032689996 0.050669495 -0.20290571 -0.042113513
0.09374587 0.15071459 0.14254825 -0.08640686 0.14195147 -0.09075882 -0.14803 -0.1500084
0.031345785 -0.08397463 -0.12949973 -0.069718674 -0.09686091 -0.046301514 -0.018231418 -0.14767106
0.039736208 -0.11437569 0.13342421 0.0991102 0.10228353 0.0960504 -0.07408042 0.11885692
-0.026437914 -0.05334571 -0.02467 0.19439921 -0.008053242 -0.09299114 -0.18593496 0.121602654
0.045007907 0.106100745 -0.17922062 -0.17224817 -0.03402115 -0.095955424 0.115103565 -0.041731678
-0.020837963 -0.16411802 0.059088103 0.0016520356 -0.01915337 -0.090144895 0.0637223 -0.028251017
00000000: d5cc abbc ff1a 3d3e 78c2 ad3d 0d33 10bd
00000010: 65fc d8bd 7d43 efbb 0392 d83d e406 b93d
00000020: 9e4a d53c bc92 cf3a 2185 903d f5d9 4bbd
00000030: 3cc5 9b3d c93e d33d d9ed a6bc 5164 a93c
00000040: b3c0 e03c 67ca 383e b56b 8cbc 3a2d 0fbe
00000050: 49fb fc3d 1800 dbbc cd4e cd3d 082d 0f3d
00000060: 695e 833c b417 05be d0af eebd 4ec3 c23d
00000070: b895 abbd af8c aabd 88d9 973c 2a24 213c
00000080: f817 e63d df2e 63bd dc36 2a3b 85ba 98bd
00000090: cbf8 0dbd 6a5c 87bd 3237 813d 9bb2 563d
000000a0: 21bf cb3c 60ca 813d 9094 0d3e 1ef9 6a3d
000000b0: 5d88 ba3b f58a e7bd da76 40bd 4f43 ccba
000000c0: ed40 9f3d e571 373e 41bd 2dbe 66b4 a53d
000000d0: 4edb 56bd 2093 f53d fbb5 db3c 29a1 003e
000000e0: 6fec 04bc 3ed1 5dbc 9d39 8b3d e098 b63d
000000f0: a8ee cfbb 61f4 003e 9076 84bd 3f96 6b3d
00000100: 75ef 023e a30b 2d3e d53a 723d ea19 553d
00000110: da2b f0bb 8db9 c7bd 8856 433c e9e9 c33d
00000120: 5908 20bc 41ca 1dbe 5373 2bbe 5bcf bbbd
00000130: f2e5 05bd d18a 4f3d 84c6 4fbe 387f 2cbd
00000140: d6fd bf3d ed54 1a3e 2bf8 113e 14f6 b0bd
00000150: ba5b 113e c3df b9bd 2d95 17be cd9b 19be
00000160: 7064 003d e4fa abbd 949b 04be aac8 8ebd
00000170: 035f c6bd a8a6 3dbd 0e5a 95bc 1537 17be
00000180: 6fc2 223d cd3d eabd 5ba0 083e 4afa ca3d
00000190: 077a d13d 12b6 c43d 7ab7 97bd 426b f33d
000001a0: 5394 d8bc 0881 5abd bd18 cabc 9610 473e
000001b0: bff1 03bc 2472 bebd bc65 3ebe d00a f93d
000001c0: 365a 383d 594b d93d 9c85 37be d361 30be
000001d0: c359 0bbd 4784 c4bd 6bbb eb3d d6ee 2abd
000001e0: 60b4 aabc 8e0e 28be 5e06 723d 1e89 d83a
000001f0: 87e7 9cbc e39d b8bd d680 823d ad6e e7bc

rnn.weight_hh_l0 f4 [128, 32]
0.07877173 0.08275635 -0.024932384 0.0021344244 -0.112125896 0.10349182 0.056815006 0.067796916
-0.027838144 -0.037271224 0.0891055 -0.05160192 0.04117622 0.06813133 0.0032207803 -0.101662
0.08425898 0.046548147 -0.029129215 -0.012183727 -0.016733348 0.0052558696 0.07764752 -0.09387512
0.069768116 -0.039476108 0.06042672 -0.015512421 -0.027934184 -0.005793235 -0.014151257 0.09748117
-0.15051258 -0.10616284 0.011397844 -0.0016961384 0.006575665 0.06570186 0.0077701835 0.012466978
-0.13848135 0.15096468 -0.023271358 0.100338876 0.024326643 0.06392156 -0.14493124 -0.06479525
-0.020620499 0.017735103 -0.027822394 -0.049333747 0.03451073 -0.059544608 0.051953234 -0.012796635
0.04547655 -0.06740444 -0.113846086 0.021323958 -0.04360325 -0.013530146 0.021020383 -0.03805506
-0.0007711457 -0.14705506 -0.11189247 0.009972406 -0.12441758 0.017336914 0.040104162 -0.010239699
0.055078965 0.024784401 -0.04141231 0.023795957 -0.021298429 -0.056523707 0.04838881 -0.070610605
-0.045471705 -0.022398192 -0.040431403 0.03260422 -0.029012145 0.031331446 0.009231498 -0.015083449
0.06467647 0.0065153944 0.027972357 0.018781586 0.042321187 -0.05372656 -0.036212835 -0.05437718
-0.014261328 0.013461907 -0.0076921047 -0.001272847 -0.0100050755 -0.0002870162 -0.0053653335 0.0059441417
0.015153755 -0.02323008 -0.014725726 0.004378684 0.0049150055 0.04279 -0.06730147 -0.04223
0.01818987 -0.011983051 -0.035482097 0.0029547054 -0.00060498883 0.000401968 0.0011972841 -0.0034643877
0.024581365 0.0011532636 0.03600881 0.011319626 0.026588017 -0.049430355 -0.03680942 -0.01834815
0.07869817 -0.036314 0.04091167 0.039655577 0.086803764 -0.029914957 0.12827064 -0.046746545
0.012739614 -0.008535159 -0.014330232 -0.08566148 0.028208658 0.04089836 0.01990328 0.14919539
0.11393278 0.1186726 7.14756e-05 0.0012346549 0.0012009223 -0.08996441 -0.0039026074 -0.046592116
-0.037624408 -0.14178014 -0.12567785 -0.045381166 -0.122328766 0.06797759 0.077943966 -0.13798022
0.030514475 0.009909247 -0.070410825 0.023683148 -0.080181316 -0.07242034 0.044274144 -0.02221412
0.0045743682 -0.09542444 0.10443095 0.043980986 -0.016783526 0.077595875 -0.09465345 -0.008279712
0.0077744746 0.037785057 0.006955695 -0.004623684 -0.0883422 -0.012531306 -0.09122783 -0.081685975
0.009069294 0.031602718 0.0032398507 -0.049168997 0.051413044 0.0015116812 0.0076339915 0.0676315
0.10922864 -0.04289712 -0.0066855317 0.001385867 -0.046640247 0.108426355 -0.124523595 0.03890849
-0.075132206 0.07992486 -0.1398996 -0.03333427 0.027311664 -0.003963515 0.007672365 -0.08940738
0.078446835 0.028442202 -0.12255612 -0.06984624 0.027322482 -0.06417414 0.09891971 0.010606412
-0.025479767 -0.09119479 -0.005519333 -0.060738504 -0.099173926 0.022928897 0.01480131 -0.081529595
-0.06866488 0.042309474 -0.027311761 -0.021336103 0.014112876 0.01996554 0.11582259 0.088041745
-0.038236853 0.018059291 -0.01142265 0.00689236 -0.0322493 -0.12680309 -0.13794397 -0.057063673
0.035579544 0.04913412 -0.015006324 -0.013078158 -0.08777747 -0.022134997 -0.008158852 -0.03929575
-0.03271741 -0.035948317 -0.035054255 -0.023379797 0.0025706405 -0.08753272 -0.0263414 -0.043054853
00000000: 1353 a13d 297c a93d 003f ccbc b3e1 0b3b
00000010: 43a2 e5bd 85f3 d33d dab6 683d 1cd9 8a3d
00000020: d20c e4bc b6a9 18bd f27c b63d 895c 53bd
00000030: 65a8 283d 7088 8b3d ba13 533b 2b34 d0bd
00000040: f98f ac3d 45a9 3e3d 64a0 eebc 419e 47bc
00000050: 6014 89bc 6e39 ac3b aa05 9f3d 9941 c0bd
00000060: 96e2 8e3d b3b1 21bd 0282 773d cf27 7ebc
00000070: 3bd6 e4bc 2dd5 bdbb adda 67bc 35a4 c73d
00000080: f81f 1abe e76b d9bd 06be 3a3c f650 deba
00000090: ad78 d73b b28e 863d 069d fe3b 4c42 4c3c
000000a0: 0ece 0dbe 7c96 1a3e 93a3 bebc 787e cd3d
000000b0: ab48 c73c 4fe9 823d db68 14be 5fb3 84bd
000000c0: 52ec a8bc 3549 913c caeb e3bc 2f12 4abd
000000d0: 205b 0d3d 0ce5 73bd eacc 543d faa8 51bc
000000e0: 9e45 3a3d 570b 8abd 2328 e9bd 95af ae3c
000000f0: 5299 32bd 8cad 5dbc f032 ac3c 9fdf 1bbd
00000100: b626 4aba 9a95 16be e127 e5bd 4d63 233c
00000110: a5ce febd 2506 8e3c 4344 243d 69c4 27bc
00000120: 7b9a 613d a808 cb3c f49f 29bd bdef c23c
00000130: 0b7a aebc 6785 67bd 5833 463d 4b9c 90bd
00000140: 8a40 3abd 6a7c b7bc 669b 25bd 018c 053d
00000150: e1aa edbc 6755 003d b63f 173c 9220 77bc
00000160: 1975 843d 177f d53b 4926 e53c d7db 993c
00000170: fb58 2d3d 6210 5cbd e953 14bd 9bba 5ebd
00000180: 58a8 69bc 558f 5c3c 0d0e fcbb a8d5 a6ba
00000190: 54ec 23bc aa7a 96b9 aecf afbb 13c7 c23b
000001a0: 7547 783c 024d bebc 2c44 71bc 107b 8f3b
000001b0: 0e0e a13b 9144 2f3d 5ad5 89bd 5df9 2cbd
000001c0: ec02 953c 8f54 44bc ad55 11bd bba3 413b
000001d0: 1d98 1eba 3bbf d239 30ee 9c3a c80a 63bb
000001e0: dc5e c93c 1b29 973a f97d 133d f475 393c
000001f0: 1dcf d93c 7c77 4abd 79c5 16bd dc4e 96bc
00000200: 822c a13d fdbd 14bd ff92 273d e36d 223d
00000210: 2cc6 b13d 3610 f5bc 6159 033e 4e79 3fbd
00000220: d0b9 503c 0dd7 0bbc 59c9 6abc 496f afbd
00000230: d815 e73c 0a85 273d 340c a33c adc6 183e
00000240: 9755 e93d 9f0a f33d 2ce5 9538 25d4 a13a
00000250: 4468 9d3a 433f b8bd e3c2 7fbb 60d7 3ebd
00000260: 0d1c 1abd d02e 11be b2b1 00be 9ae1 39bd
00000270: 8187 fabd d637 8b3d 16a1 9f3d b04a 0dbe
00000280: 7ef9 f93c 655a 223c 8d33 90bd 2903 c23c
00000290: 1a36 a4bd 1d51 94bd ce58 353d 63fa b5bc
000002a0: 95e4 953b e46d c3bd e5df d53d 6825 343d
000002b0: 9b7d 89bc 96ea 9e3d abd9 c1bd a1a7 07bc
000002c0: 05c1 fe3b 81c4 1a3d 99ec e33b 4682 97bb
000002d0: c1ec b4bd 1b50 4dbc a8d5 babd fa4a a7bd
000002e0: 6097 143c da71 013d ad53 543b 6e65 49bd
000002f0: 7c96 523d 9b23 c63a 9026 fa3b 6282 8a3d
00000300: 44b3 df3d e4b4 2fbd 4e12 dbbb fba5 b53a
00000310: d809 3fbd a30e de3d 3a06 ffbd 825e 1f3d
00000320: eade 99bd a5af a33d d741 0fbe 8489 08bd
00000330: b6bc df3c 60e0 81bb 7668 fb3b 371b b7bd
00000340: bca8 a03d 9fff e83c b4fe fabd 8c0b 8fbd
00000350: 66d3 df3c bb6d 83bd 6b96 ca3d 84c6 2d3c
00000360: f2ba d0bc 56c4 babd 85db b4bb f0c8 78bd
00000370: b31b cbbd 62d5 bb3c 3281 723c fdf8 a6bd
00000380: 2ca0 8cbd b34c 2d3d eabc dfbc 0dc9 aebc
00000390: b139 673c c68e a33c 6534 ed3d 3b4f b43d
000003a0: 3f9e 1cbd 14f1 933c 1126 3bbc 4ed9 e13b
000003b0: d817 04bd abd8 01be 2f41 0dbe 99bb 69bd
000003c0: dbbb 113d dc40 493d 16dd 75bc c545 56bc
000003d0: adc4 b3bd 7454 b5bc b5ac 05bc 95f4 20bd
000003e0: b102 06bd 8b3e 13bd 0d95 0fbd fd86 bfbc
000003f0: 3178 283b 5b44 b3bd ebc9 d7bc 495a 30bd

rnn.bias_ih_l0 f4 [128]
0.069439515 0.1672524 -0.06818718 0.026317203 -0.09450045 -0.036906157 0.13504961 0.012415082
0.18137956 0.12417818 0.10348413 -0.15433812 -0.0058143004 0.05671588 0.097422466 0.082442276
0.048442587 -0.05514806 -0.12749693 0.16282019 -0.08331859 0.03913955 0.049421396 0.12739141
0.07718784 -0.14785719 0.09214807 0.13908814 0.16125706 -0.08141661 0.017283063 0.04887277
0.10730905 0.05198134 -0.058206238 -0.02667573 -0.023175683 -0.033148635 0.11928636 -0.094870135
0.061691463 -0.13397545 -0.050215986 -0.18313956 -0.024827061 0.039865285 -0.1501884 -0.045116853
-0.19717503 0.10815591 -0.15967642 0.09671126 0.0112088295 0.10184466 -0.024845527 -0.18591544
0.09641263 0.017896224 0.072860844 -0.06776923 0.12797844 -0.002614452 0.08051379 -0.07514945
0.08066488 0.044030957 0.035896283 0.054575413 0.10683264 0.10882063 -0.12029854 -0.07909466
0.17794102 -0.086845465 0.17961772 -0.14017333 0.15157534 -0.01833033 0.1691685 0.009023734
-0.10758847 -0.12842079 0.07729122 0.05367149 0.045346577 -0.0042739296 0.050056204 0.091395825
-0.06375781 -0.13400774 -0.20008601 0.18629839 -0.09507759 0.10206764 -0.022084616 -9.657485e-05
0.14019094 0.0009745788 0.080596015 -0.07012081 -0.16059732 -0.041892953 0.15607154 0.10381669
-0.032171596 -0.020364976 0.07454451 0.036513884 -0.020175114 0.11923791 -0.105112 0.073295616
0.011760503 -0.19557004 -0.0031874308 -0.09479982 -0.0011215095 -0.14880703 -0.10254604 0.14676322
-0.09838238 -0.07090965 0.17404981 0.16568372 -0.07216639 -0.12830865 0.11036222 0.117412
00000000: 4e36 8e3d 3744 2b3e b8a5 8bbd 2d97 d73c
00000010: 7489 c1bd e92a 17bd 724a 0a3e a168 4b3c
00000020: 90bb 393e 2151 fe3d 7def d33d d00a 1ebe
00000030: e385 bebb e94e 683d 6e85 c73d 7fd7 a83d
00000040: bc6b 463d efe2 61bd 8e8e 02be 56ba 263e
00000050: f0a2 aabd cb50 203d 176e 4a3d e572 023e
00000060: a914 9e3d e067 17be 21b8 bc3d 1f6d 0e3e
00000070: 9220 253e c0bd a6bd 3695 8d3c d02e 483d
00000080: d9c4 db3d 63ea 543d aa69 6ebd 0f87 dabc
00000090: eeda bdbc ddc6 07bd 684c f43d 464b c2bd
000000a0: 30b0 7c3d dc30 09be 47af 4dbd f088 3bbe
000000b0: 1f62 cbbc c849 233d fdca 19be 73cc 38bd
000000c0: 40e8 49be d980 dd3d 3782 23be 8e10 c63d
000000d0: 3da5 373c ef93 d03d d988 cbbc 9e60 3ebe
000000e0: fc73 c53d 1a9b 923c 1138 953d 98ca 8abd
000000f0: c80c 033e 3a57 2bbb 6ae4 a43d f4e7 99bd
00000100: a133 a53d ce59 343d fb07 133d 788a 5f3d
00000110: 12cb da3d 5add de3d 155f f6bd 62fc a1bd
00000120: 2c36 363e 09dc b1bd b5ed 373e 9989 0fbe
00000130: 9136 1b3e 7d29 96bc 823a 2d3e 49d8 133c
00000140: 5857 dcbd bd80 03be dc4a 9e3d a3d6 5b3d
00000150: 55bd 393d 520c 8cbb bc07 4d3d bc2d bb3d
00000160: 7493 82bd 5339 09be 59e3 4cbe 01c5 3e3e
00000170: 0ab8 c2bd d708 d13d ccea b4bc 3a88 cab8
00000180: 378e 0f3e e07a 7f3a 860f a53d 809b 8fbd
00000190: a073 24be f297 2bbd 38d1 1f3e d89d d43d
000001a0: 5dc6 03bd 73d4 a6bc cbaa 983d 958f 153d
000001b0: 4846 a5bc 0133 f43d f644 d7bd 031c 963d
000001c0: 20af 403c 8343 48be 37e4 50bb 6826 c2bd
000001d0: 9dff 92ba df60 18be a903 d2bd 1949 163e
000001e0: b47c c9bd 1439 91bd 1d3a 323e fea8 293e
000001f0: f9cb 93bd 5863 03be 9605 e23d b475 f03d

rnn.bias_hh_l0 f4 [128]
0.05754805 -0.041209083 0.028362622 -0.093332395 -0.034049913 0.10762612 -0.13101989 0.0053800414
0.17134857 -0.03686891 -0.1458793 0.13397054 -0.09680869 -0.051732935 0.13392073 0.040800232
-0.12036319 -0.17762965 0.011399683 -0.029372016 -0.14825977 -0.11462448 0.06809884 0.1012016
-0.032339048 0.04830395 0.07039971 -0.13809907 -0.0071782144 0.026676971 0.03316633 0.1470292
-0.14029145 -0.05095115 -0.12115302 -0.009041938 0.095799476 -0.003453506 -0.01149092 0.029705582
-0.054410834 0.037574235 0.09955297 0.0107283 -0.03500518 -0.08117303 0.067338474 0.13054773
-0.1804238 0.11087522 -0.023665594 -0.12649937 -0.11570938 0.058792513 -0.0855227 0.09317864
-0.12698178 0.000109228764 0.08061269 0.11984262 0.016294999 -0.029544428 -0.13710482 -0.066937506
0.08991814 0.055557456 0.070457645 -0.018001823 -0.05682828 0.019044692 -0.19801751 0.047764625
0.1397853 -0.046930652 -0.021510545 -0.0012323989 0.03162672 0.1328144 -0.005671939 -0.116231315
-0.11350332 0.05952162 0.011489111 -0.19209328 -0.07165495 -0.035180878 -0.008579728 0.15224552
0.07349426 0.17576073 -0.1953056 -0.07164049 -0.14942196 0.03060221 0.10600513 0.16808234
0.15052027 -0.014795352 -0.12868357 -0.040497445 0.06418825 0.10965635 -0.120032996 -0.16366272
0.09002374 0.116256066 -0.032678 -0.14657383 0.10756474 0.026813274 0.0072661 -0.02868463
0.007285763 -0.028491575 -0.14523537 -0.018601567 -0.052257348 -0.045850486 -0.13085668 0.13809285
0.0054724347 -0.015598669 0.05794286 -0.018128326 -0.117776364 0.007495598 -0.12199365 0.18361625
00000000: 81b7 6b3d dbca 28bd bb58 e83c 0e25 bfbd
00000010: ec77 0bbd 156b dc3d 142a 06be 0f4b b03b
00000020: 0076 2f3e db03 17bd 6261 15be 932f 093e
00000030: a243 c6bd eae5 53bd 8422 093e 251e 273d
00000040: fa80 f6bd 8ce4 35be bcc5 3a3c 959d f0bc
00000050: 69d1 17be 3dc0 eabd 6877 8b3d c942 cf3d
00000060: f375 04bd 5dda 453d b92d 903d d869 0dbe
00000070: 3a37 ebbb aa89 da3c 6bd9 073d d38e 163e
00000080: 90a8 0fbe 27b2 50bd 131f f8bd a324 14bc
00000090: 8432 c43d 3754 62bb 6944 3cbc 1f59 f33c
000000a0: e5dd 5ebd 71e7 193d 6de2 cb3d c0c5 2f3c
000000b0: 9761 0fbd 0c3e a6bd c1e8 893d 4eae 053e
000000c0: 04c1 38be 8c12 e33d 59de c1bc 0d89 01be
000000d0: 0af9 ecbd 6bd0 703d 8626 afbd 71d4 be3d
000000e0: 8307 02be bf11 e538 4418 a53d 0c70 f53d
000000f0: 177d 853c 2807 f2bc 3565 0cbe 8816 89bd
00000100: 0027 b83d 3790 633d 194c 903d 8f78 93bc
00000110: c5c4 68bd 9d03 9c3c 1ac5 4abe d7a4 433d
00000120: e123 0f3e 5b3a 40bd e236 b0bc 7288 a1ba
00000130: 058b 013d 8000 083e acdb b9bb af0a eebd
00000140: 6e74 e8bd f1cc 733d d33c 3c3c 1ab4 44be
00000150: d5bf 92bd d319 10bd fd91 0cbc 40e6 1b3e
00000160: 2984 963d 9ffa 333e 31fe 47be 40b8 92bd
00000170: 1202 19be 7cb1 fa3c 3819 d93d c71d 2c3e
00000180: fc21 1a3e 3468 72bc a0c5 03be a6e0 25bd
00000190: 2175 833d 8293 e03d dcd3 f5bd 3397 27be
000001a0: 5e5e b83d a917 ee3d 5ed9 05bd 7317 16be
000001b0: e74a dc3d 83a7 db3c 7718 ee3b 07fc eabc
000001c0: 69bd ee3b 2a67 e9bc 95b8 14be 5062 98bc
000001d0: cd0b 56bd b8cd 3bbd 4bff 05be 3668 0d3e
000001e0: 1c52 b33b 8f91 7fbc 7e55 6d3d db81 94bc
000001f0: bc34 f1bd a29d f53b cfd7 f9bd e605 3c3e

gcn.lin_n.weight f4 [32, 32]
-0.02423373 -0.066629514 0.14190967 -0.108175546 -0.07577987 0.05183917 -0.13034394 -0.008986466
-0.0112386225 -0.04309047 -0.032528743 -0.19698726 0.173528 -0.12785242 0.047637194 0.1374392
0.060126774 0.11628428 -0.06027196 -0.111344405 -0.063039556 0.0468233 0.07678395 0.05756657
-0.004422827 0.18701515 -0.13733351 -0.03119857 -0.04408023 0.07015801 0.18670228 -0.0042597144
0.0036202525 0.06806252 0.09905596 0.009018381 -0.05546123 0.004984591 0.08523036 -0.023757456
0.010003566 -0.1151435 -0.030474342 -0.018770833 0.015175068 0.009342358 -0.0010862185 -0.015011047
-0.05482584 0.06992511 0.06810385 -0.09162183 0.0021802161 -0.017859105 0.04878269 -0.027542245
0.095364496 -0.015289883 0.00512613 -0.05668926 -0.11382117 -0.037366495 0.03035864 -0.06951791
0.024261063 0.17873836 0.030371154 -0.054703817 0.14000565 0.13626511 -0.009545223 -0.011632237
0.105867885 -0.008478075 0.012924297 0.045490164 0.16934697 0.106490195 -0.04436986 0.14642659
-0.076523826 0.016455483 0.05877896 -0.16844796 -0.07361061 0.11108355 -0.114964396 0.05939433
-0.107395 -0.104087405 -0.15095192 0.20282367 0.10856905 -0.1564565 -0.14605431 0.045716316
0.108200006 0.119780034 0.08337597 0.11670587 0.0368528 -0.02625186 0.12526987 -0.11262805
-0.066916846 0.050614066 -0.0083079655 0.011764808 0.008566322 0.007413891 0.12543383 -0.015026499
0.0028941708 0.08033871 0.1006297 0.1409798 -0.18097734 0.17812711 -0.0029442348 -0.17025864
0.10587144 -0.15155351 -0.049039982 -0.027705189 -0.0092420885 0.013710628 -0.019664185 0.07791629
0.032570533 0.023200285 0.14474967 -0.07276425 0.08408954 -0.007858253 0.18045138 -0.046426196
-0.019005582 -0.109553345 0.085758805 0.09781995 -0.090592645 0.13997746 0.012188521 0.024737233
0.035298184 -0.091726586 0.12967798 0.011897921 0.18506785 0.13885409 -0.016376808 -0.010081402
0.04969467 0.03834549 -0.07356917 -0.11744066 -0.13959426 -0.08235063 0.15400998 0.012871193
0.19327287 -0.017294206 0.08382566 0.1938155 -0.12312457 0.1422957 0.061287053 0.15658252
0.17582014 -0.008784301 0.1470269 -0.041043438 0.06618707 -0.08177062 0.0067097275 -0.13422072
-0.08117853 0.13760407 -0.13008171 -0.17304261 -0.069786675 0.08666901 0.04796839 0.18389297
-0.109002486 -0.14240228 -0.17875601 -0.02032169 -0.1182892 0.07023063 0.040976238 -0.08937152
0.1564325 0.19523847 0.0003337299 -0.020552222 0.011077909 -0.0035168277 -0.08442489 0.004334269
0.20459765 -0.09288452 0.0797779 -0.058959935 0.06419017 0.18481956 0.09321336 -0.1636373
-0.13002132 0.029989913 -0.02731672 -0.19274385 0.14443628 -0.14072113 -0.008306419 -0.08286863
-0.10160908 0.049912773 -0.053875286 0.17575651 -0.10992601 0.18685262 0.03877766 0.17579333
0.012228278 1.3151355e-05 0.010179724 -2.0883651e-06 4.420864e-06 0.005069818 0.0067671505 -1.5608053e-07
-0.0281513 0.0018103953 -0.0020191146 1.5428497e-05 -1.8296384e-06 -9.463483e-06 0.014705108 -1.2175053e-06
-0.023189496 0.0028870439 0.00084194745 0.00047962106 -3.9090466e-08 -6.0894024e-07 9.352017e-08 -0.022247927
3.948622e-07 -5.2218985e-07 -0.023672571 7.3202823e-06 0.008397568 0.0017711635 -7.813662e-05 -0.0023751042
00000000: d185 c6bc 0e75 88bd c550 113e 248b ddbd
00000010: 7a32 9bbd 4f55 543d e278 05be f83b 13bc
00000020: 3322 38bc a27f 30bd dc3c 05bd 07b7 49be
00000030: 53b1 313e bfeb 02be 381f 433d ddbc 0c3e
00000040: 7e47 763d 7426 ee3d bbdf 76bd 8908 e4bd
00000050: e21a 81bd cac9 3f3d e740 9d3d ecca 6b3d
00000060: 5ded 90bb e680 3f3e 28a1 0cbe 2594 ffbc
00000070: 798d 34bd 01af 8f3d e22e 3f3e 1395 8bbb
00000080: c241 6d3b 5d64 8b3d dadd ca3d d5c1 133c
00000090: 512b 63bd c855 a33b 418d ae3d ff9e c2bc
000000a0: ffe5 233c 5bd0 ebbd 54a5 f9bc 4ac5 99bc
000000b0: d9a0 783c b110 193c 725f 8eba e5f0 75bc
000000c0: 0f91 60bd e534 8f3d 087a 8b3d 3aa4 bbbd
000000d0: f5e1 0e3b 424d 92bc 5cd0 473d 46a0 e1bc
000000e0: 764e c33d 6b82 7abc 18f9 a73b ff32 68bd
000000f0: 131b e9bd 9c0d 19bd afb2 f83c 685f 8ebd
00000100: 23bf c63c 3007 373e edcc f83c 1c11 60bd
00000110: a45d 0f3e 1589 0b3e 9163 1cbc 2395 3ebc
00000120: 43d1 d83d a0e7 0abc 6ec0 533c e553 3a3d
00000130: 4b69 2d3e 8817 da3d 2cbd 35bd daf0 153e
00000140: 86b8 9cbd a6cd 863c 35c2 703d 9f7d 2cbe
00000150: 29c1 96bd c67f e33d 7472 ebbd 7847 733d
00000160: e9f1 dbbd c72b d5bd 2493 1abe 02b1 4f3e
00000170: 7359 de3d 2236 20be 438f 15be 0841 3b3d
00000180: f797 dd3d 3c4f f53d 05c1 aa3d 7d03 ef3d
00000190: f6f2 163d 240e d7bc bf46 003e 89a9 e6bd
000001a0: b30b 89bd b250 4f3d 221e 08bc 2ec1 403c
000001b0: c259 0c3c 3af0 f23b ba71 003e b431 76bc
000001c0: 21ac 3d3b 9f88 a43d f216 ce3d 025d 103e
000001d0: 2052 39be f466 363e 10f4 40bb 4858 2ebe
000001e0: 20d3 d83d d830 1bbe 26de 48bd fef5 e2bc
000001f0: 216c 17bc 8ba2 603c c916 a1bc 9392 9f3d
00000200: ae68 053d 860e be3c 4239 143e 6c05 95bd
00000210: 2337 ac3d e7bf 00bc 3fc8 383e 6529 3ebd
00000220: 98b1 9bbc 815d e0bd 50a2 af3d d355 c83d
00000230: a388 b9bd 4056 0f3e 5db2 473c bda5 ca3c
00000240: d494 103d 26db bbbd 4eca 043e 7fef 423c
00000250: 6d82 3d3e c42f 0e3e a828 86bc 772c 25bc
00000260: a38c 4b3d 2910 1d3d 6fab 96bd bb84 f0bd
00000270: ccf1 0ebe 72a7 a8bd cbb4 1d3e b2e1 523c
00000280: 53e9 453e 94ac 8dbc caac ab3d 9277 463e
00000290: bc28 fcbd f7b5 113e 2208 7b3d 2b57 203e
000002a0: 320a 343e 07ec 0fbc 388e 163e 2a1d 28bd
000002b0: 168d 873d 5b77 a7bd 46dd db3b 2871 09be
000002c0: ee40 a6bd 15e8 0c3e 2434 05be 1532 31be
000002d0: 51ec 8ebd 867f b13d 817a 443d 704e 3c3e
000002e0: b23c dfbd e7d1 11be d10b 37be ac79 a6bc
000002f0: 9c41 f2bd 14d5 8f3d b3d6 273d 6a08 b7bd
00000300: d72f 203e 98ec 473e 78f8 ae39 225d a8bc
00000310: 1e80 353c 947a 66bb f5e6 acbd 7c06 8e3b
00000320: 0c82 513e 3d3a bebd 9862 a33d f97f 71bd
00000330: 2376 833d 5741 3d3e a5e6 be3d 8990 27be
00000340: 4f24 05be 68ad f53c 50c7 dfbc a55e 45be
00000350: 1be7 133e 3319 10be a517 08bc 07b7 a9bd
00000360: 6c18 d0bd 5671 4c3d 55ac 5cbd 84f9 333e
00000370: e320 e1bd 4b56 3f3e 53d5 1e3d 2b03 343e
00000380: 1e59 483c a4a4 5c37 dbc8 263c d725 0cb6
00000390: ef56 9436 b720 a63b f9be dd3b 1797 27b4
000003a0: 8e9d e6bc c94a ed3a 1f53 04bb 726c 8137
000003b0: e691 f5b5 5ac5 1eb7 b1ed 703c 2a69 a3b5
000003c0: e6f7 bdbc 8f34 3d3b 23b6 5c3a a675 fb39
000003d0: 6ce4 27b3 0e76 23b5 42d5 c833 4941 b6bc
000003e0: 73fd d334 9d2c 0cb5 fbec c1bc bfa0 f536
000003f0: f495 093c 6326 e83a 47dd a3b8 a3a7 1bbb

gcn.lin_n.bias f4 [32]
0.23756325 -0.010710662 0.092432916 0.12436483 0.088952176 -0.053437132 0.13146996 -0.026267512
0.19610928 0.20922291 -7.334185e-05 -0.1422856 -0.045060944 0.08646163 -0.048057463 0.21056901
-0.025366263 0.17863826 -0.022353077 0.20278692 -0.024901643 0.0013079518 -0.0024445287 -3.8454342e-05
0.043676488 -0.01672396 0.19545421 -0.03681684 0.069597304 0.036659103 -0.052557025 0.053342503
00000000: c843 733e c67b 2fbc 784d bd3d fdb2 fe3d
00000010: 8f2c b63d e5e0 5abd 10a0 063e f72e d7bc
00000020: dfd0 483e 883e 563e 1bcf 99b8 51b3 11be
00000030: d391 38bd cc12 b13d e7d7 44bd 679f 573e
00000040: e9cc cfbc f3ec 363e cd1d b7bc 60a7 4f3e
00000050: 88fe cbbc 946f ab3a 6334 20bb 094a 21b8
00000060: 1ee6 323d b000 89bc 2625 483e 41cd 16bd
00000070: 0889 8e3d db27 163d 0946 57bd ab7d 5a3d

gcn.lin_r.weight f4 [32, 32]
-0.017855775 -0.025401764 -0.01730418 -0.02458048 0.07984771 -0.11179141 0.08985783 -0.17456959
0.024615802 -0.08975425 -0.024802305 0.15628713 -0.13616851 -0.114354424 -0.08065785 -0.13523707
-0.0987214 0.10687973 0.15813567 -0.15221223 -0.06346018 0.11245288 0.0505345 0.026592597
-0.11811397 -0.07316931 0.14507718 -0.03431015 -0.052330095 0.004225329 0.019446082 -0.06859193
0.008328585 0.044085205 0.08410668 0.004278868 -0.040876195 -0.07142107 -0.03505018 0.06524388
-0.080257244 -0.0070182243 0.045868028 -0.013931488 0.013507805 -0.007230361 0.05001421 -0.0074792067
-0.029894138 -0.0027791157 0.064328164 -0.02974941 0.013070644 -0.09101417 -0.006323772 -0.0053900313
-0.038987353 0.07507029 -0.007413847 0.029469099 -0.09943283 0.104556635 0.03666333 0.061205294
0.043461807 0.10958221 0.014851574 0.058900606 0.057420082 -0.032293703 0.01905593 0.07439103
-0.014850019 0.16164927 0.14015584 0.0029612014 -0.010265756 0.18434498 -0.08547168 0.092135414
-0.022391075 0.12334208 0.15449221 -0.13057187 -0.11856261 0.10461509 0.004728451 0.17893687
-0.13240692 -0.037043482 -0.15680405 0.0013740949 0.055561006 0.08316213 -0.08791552 0.081184685
0.17286785 0.0914231 0.17364065 0.27934304 0.06280771 -0.18290742 0.13198699 0.1572126
0.024234293 -0.19046283 0.039079104 -0.06445327 -0.05966147 0.067214236 -0.17134903 -0.1681047
-0.0583414 -0.033638705 0.14474301 -0.076683074 0.06577371 -0.22986056 -0.21211804 -0.18755975
0.08637074 -0.03943573 -0.13313268 0.02116699 -0.17356811 -0.15337774 -0.1135472 -0.20081805
0.11046561 -0.021331098 -0.12462287 -0.012366772 -0.11077894 -0.068744786 -0.017968481 0.10907907
0.023384273 0.102646805 -0.04590347 0.001890315 -0.15395133 -0.095142946 -0.08954828 -0.08544911
-0.011830929 0.12478179 -0.08770557 0.14240251 0.077131934 -0.07625017 0.0809793 -0.058703125
0.047708403 0.03780701 -0.057541456 0.054615136 0.0242812 0.12867427 0.124627605 -0.12341951
-0.1540432 -0.045378488 -0.10885737 0.042722102 0.013533035 -0.096130796 0.10543329 0.015662566
-0.117185324 -0.028253162 0.12880412 0.05956141 -0.07151643 -0.035571977 0.05794752 -0.116473824
0.07368672 0.09610059 -0.10698133 -0.04775785 -0.08206137 -0.02555251 -0.028098231 0.04643305
0.13229497 0.13608462 -0.019059986 0.045547985 -0.01954552 0.09107151 0.09117273 0.00484895
-0.018638197 -0.15116645 0.0445319 0.11234454 -0.070724316 0.06537336 0.07333874 0.01521381
0.1768975 -0.17395394 0.16133133 0.13893098 -0.07216752 0.04806023 0.17879575 0.021883385
0.08991954 0.062232338 -0.13602524 0.08939573 0.03535218 0.15805279 0.07521989 -0.116202496
-0.11622472 -0.20859125 0.0008677787 -0.14933972 0.0149961915 0.094076 -0.124905266 0.15433057
2.3681403e-06 2.8358613e-09 1.928386e-06 6.1580175e-07 -1.9685627e-05 0.000669263 -3.360641e-07 -5.2531493e-07
0.0042777634 -5.0107255e-06 -1.981932e-06 -4.026821e-07 -2.3100128e-07 2.3467276e-06 -0.00030096644 -6.42613e-07
-9.2982655e-06 -5.9482295e-07 -2.029644e-07 -2.015342e-07 -1.209799e-07 2.4755462e-07 -5.5714554e-07 -0.0005442731
1.3507257e-05 2.0687976e-06 -0.0011932545 3.6783845e-06 1.7909305e-07 -6.901862e-07 -1.9140174e-07 3.8052576e-07
00000000: 4646 92bc 5c17 d0bc 7fc1 8dbc 015d c9bc
00000010: 3287 a33d e5f2 e4bd 6207 b83d 5fc2 32be
00000020: 14a7 c93c 14d1 b7bd 342e cbbc bc09 203e
00000030: c26f 0bbe a732 eabd f12f a5bd 967b 0abe
00000040: 722e cabd c3e3 da3d 51ee 213e 86dd 1bbe
00000050: 69f7 81bd b24d e63d 44fd 4e3d b8d8 d93c
00000060: bde5 f1bd cbd9 95bd 1d8f 143e cd88 0cbd
00000070: 1558 56bd a174 8a3b 644d 9f3c ed79 8cbd
00000080: 9e74 083c b092 343d 1f40 ac3d bf35 8c3b
00000090: cc6d 27bd 3645 92bd c790 0fbd 959e 853d
000000a0: e95d a4bd 22f9 e5bb 1de0 3b3d e540 64bc
000000b0: d74f 5d3c aaec ecbb b3db 4c3d 2214 f5bb
000000c0: 8de4 f4bc d321 36bb 7cbe 833d 09b5 f3bc
000000d0: 4126 563c a365 babd a537 cfbb dc9e b0bb
000000e0: 34b1 1fbd 74be 993d dbef f2bb 2e69 f13c
000000f0: 71a3 cbbd ca21 d63d 4a2c 163d 67b2 7a3d
00000100: 0205 323d a36c e03d 0454 733c c341 713d
00000110: 5231 6b3d 6746 04bd 2f1b 9c3c 535a 983d
00000120: 7e4d 73bc 6387 253e 0385 0f3e b710 423b
00000130: b431 28bc eec4 3c3e c70b afbd 7eb1 bc3d
00000140: 7d6d b7bc c69a fc3d 3533 1e3e a2b4 05be
00000150: f4d0 f2bd 7040 d63d 1ff1 9a3b 3a3b 373e
00000160: ae95 07be e8ba 17bd 3e91 20be f91a b43a
00000170: f093 633d e850 aa3d 0d0d b4bd 2844 a63d
00000180: 4504 313e 093c bb3d dbce 313e 0d06 8f3e
00000190: 54a1 803d 154c 3bbe 9927 073e 57fc 203e
000001a0: ff86 c63c b008 43be 6911 203d 1300 84bd
000001b0: 965f 74bd 9ea7 893d 1f76 2fbe a323 2cbe
000001c0: 64f7 6ebd bdc8 09bd 8337 143e 040c 9dbd
000001d0: 5eb4 863d 9160 6bbe 7935 59be aa0f 40be
000001e0: 24e3 b03d 5c87 21bd ef53 08be 6566 ad3c
000001f0: d7bb 31be 0e0f 1dbe 6f8b e8bd 3fa3 4dbe
00000200: cb3b e23d 8ebe aebc 463a ffbd 009e 4abc
00000210: 12e0 e2bd 11ca 8cbd a332 93bc d964 df3d
00000220: 6090 bf3c 7d38 d23d 4705 3cbd 72c4 f73a
00000230: 6ba5 1dbe 4eda c2bd 1765 b7bd f1ff aebd
00000240: 83d6 41bc 988d ff3d fa9e b3bd f7d1 113e
00000250: 59f7 9d3d 0d29 9cbd 7ad8 a53d b072 70bd
00000260: e369 433d 86db 1a3d 97b0 6bbd 1fb4 5f3d
00000270: 5ee9 c63c 30c3 033e c23c ff3d 5ec3 fcbd
00000280: 80bd 1dbe cbde 39bd 9df0 debd 5ffd 2e3d
00000290: aab9 5d3c 39e0 c4bd 69ed d73d c84e 803c
000002a0: dcfe efbd 2d73 e7bc 3ae5 033e aaf6 733d
000002b0: 3577 92bd ecb3 11bd 615a 6d3d d489 eebd
000002c0: 10e9 963d 63d0 c43d 0719 dbbd bc9d 43bd
000002d0: cb0f a8bd 7f53 d1bc 432e e6bc 9530 3e3d
000002e0: 5578 073e c459 0b3e b023 9cbc 8690 3a3d
000002f0: ed1d a0bc b383 ba3d c5b8 ba3d f1e3 9e3b
00000300: 22af 98bc 61cb 1abe 1567 363d e514 e63d
00000310: e9d7 90bd 78e2 853d 9f32 963d 5843 793c
00000320: 9e24 353e fb20 32be 0a34 253e ec43 0e3e
00000330: 91cc 93bd ceda 443d 3c16 373e c944 b33c
00000340: bc27 b83d 56e7 7e3d 334a 0bbe 1c15 b73d
00000350: 73cd 103d 97d8 213e e30c 9a3d 93fb edbd
00000360: 3a07 eebd f298 55be a57b 633a 83ec 18be
00000370: 96b2 753c ebaa c03d 55ce ffbd d508 1e3e
00000380: 57ec 1e36 00e1 4231 6b69 0136 934d 2535
00000390: 9022 a5b7 7b71 2f3a 4c6c b4b4 5e03 0db5
000003a0: 7b2c 8c3b ce21 a8b6 5501 05b6 3530 d8b4
000003b0: 2609 78b4 797c 1d36 08cb 9db9 0780 2cb5
000003c0: bfff 1bb7 ecab 1fb5 6eee 59b4 4d65 58b4
000003d0: b4e6 01b4 a6e7 8434 c08e 15b5 8dad 0eba
000003e0: 3a9d 6237 acd5 0a36 fa66 9cba 2ada 7636
000003f0: b94c 4034 3c45 39b5 1c84 4db4 104b cc34

gcn.lin_2.weight f4 [32, 32]
-0.075286 -0.0050088437 -0.16739532 -0.17865841 0.010933233 -0.06149949 -0.031036865 -0.010554344
0.0023365747 -0.0047645955 5.909293e-07 -0.011685903 0.011155323 0.14782603 -0.020056186 0.060220324
2.0531147e-06 -0.16269647 0.017412301 -0.13458985 0.024507064 -7.894058e-06 -0.00020359844 1.7514765e-07
-0.008617793 -0.16716082 -0.019110441 -2.1059213e-06 0.0003080055 0.014437527 0.027764123 -0.09857709
-0.049883947 0.05882337 0.065718904 -0.004267471 0.013029711 0.019905742 -0.00050261547 0.00046077487
-0.15732051 -0.037811648 -1.434025e-06 -0.0022784984 -2.8391696e-07 -0.06834564 0.09058352 -0.06559629
-1.1785381e-05 -0.04496022 -0.003967122 -0.14951025 1.2943056e-05 8.732407e-06 -7.023298e-05 5.8345686e-06
-0.052535746 -0.00035678028 0.060189247 -2.1818038e-07 -0.0031600944 -0.09401046 -0.05334142 -0.1435414
-0.15036857 -0.11413293 0.13259654 -0.09188148 0.11565978 0.14817815 0.054238707 -0.00053997285
-0.2831536 -0.024070552 -2.3593107e-06 0.00012612944 4.1366246e-07 -0.10759939 0.08909943 0.0517912
-2.1306946e-06 0.05066113 -0.016311899 0.082715556 -0.018913524 1.9029438e-05 -0.00018720918 1.1612055e-06
-0.020601178 -0.15742777 -0.12176201 2.601928e-07 -0.008027816 -0.07989133 0.008214145 0.14561652
-0.21568625 0.10022518 0.039117664 -0.033111658 0.07212324 -0.032003555 -0.05053267 0.015548275
0.04127877 -0.12683359 -1.1738565e-07 0.0011947998 -0.02657275 -0.1109651 -0.10438959 -0.2125319
8.457673e-07 0.060368534 0.018725846 -0.16658108 0.024714626 1.6997622e-06 -0.00019145489 3.1725634e-07
0.0036521628 -0.09628904 0.14586005 2.95242e-06 0.022116644 -0.08244548 -0.053633496 0.14730905
-0.19247289 -0.013936725 0.06731608 -0.0653668 -0.05042121 -0.034829836 -0.20064971 -0.0034874186
-0.119532384 -0.17312787 -1.5872375e-07 -0.008738472 0.004572225 0.050229803 -0.035598468 -0.05767986
-1.3992018e-05 -0.09728575 -0.016619029 0.054986294 -0.013802329 -3.5192766e-06 -1.1179878e-05 5.0535494e-08
-0.06113031 0.030508814 -0.12937054 2.4283315e-06 -0.010899242 -0.17245753 0.038786657 -0.1720547
-0.09530487 0.02571679 0.07268543 -0.028066846 0.17577769 -0.13668804 -0.06600007 0.0017033204
-0.22495688 0.07999752 1.1025681e-06 -0.0035083042 0.0066352156 0.056378763 0.016086258 -0.19869445
-2.3612695e-06 -0.07282442 0.018454093 0.1628025 0.024234733 2.5170943e-06 -0.00022331176 2.3137122e-07
-0.062406108 0.1806601 0.18655537 -1.8912727e-09 -0.004731009 -0.12704714 -0.008046953 0.009074963
-0.14071006 0.018868027 -0.108893365 0.16726142 0.13578446 -0.104604706 -0.04664906 -0.00020646238
0.040916532 0.099845424 9.017579e-08 -0.0064232075 1.3367259e-06 0.15495203 -0.0062635336 0.0146194715
1.3174504e-06 0.03661021 -0.021534005 0.1336209 -0.025052868 -7.687658e-07 0.0002159807 -3.1077178e-08
0.049422804 -0.14567147 0.13454333 -1.4702053e-05 0.011562844 -0.15632026 -0.043330666 0.113663636
0.026814587 -0.05647675 -0.07088858 0.15930952 0.059673127 -0.13581619 -0.17492026 -0.0005080794
-0.086191505 -0.12523465 -1.4992134e-05 -0.002206408 0.0015247429 -0.07269813 -0.10603269 -0.2003714
-1.3317043e-06 -0.00017875196 -0.02023561 -0.16048154 -0.023886994 -1.39191425e-05 0.00012513078 4.9937194e-07
-0.058417372 -0.17413755 0.11901777 1.6925616e-06 -0.0044497033 -0.12570935 -0.06200164 -0.006960929
00000000: 8c2f 9abd 3a21 a4bb ae69 2bbe 3bf2 36be
00000010: 4e21 333c e4e6 7bbd 0641 febc 21ec 2cbc
00000020: 3821 193b 5320 9cbb 5aa0 1e35 3b76 3fbc
00000030: d1c4 363c b55f 173e df4c a4bc 96a9 763d
00000040: 3ec8 0936 e799 26be 3ea4 8e3c ecd1 09be
00000050: 0ac3 c83c b970 04b7 0a7d 55b9 3810 3c34
00000060: a531 0dbc 352c 2bbe 808d 9cbc 7453 0db6
00000070: cc7b a139 618b 6c3c 9671 e33c c9e2 c9bd
00000080: 1c53 4cbd c6f0 703d a297 863d 24d6 8bbb
00000090: 927a 553c 5e11 a33c f4c1 03ba 2894 f139
000000a0: a118 21be 63e0 1abd b978 c0b5 dc52 15bb
000000b0: 406d 98b4 cdf8 8bbd da83 b93d 5957 86bd
000000c0: d3b9 45b7 3528 38bd a2fe 81bb 3719 19be
000000d0: 0126 5937 6781 1237 0b4a 93b8 90c6 c336
000000e0: b92f 57bd 3d0e bbb9 0089 763d f744 6ab4
000000f0: 9619 4fbb 8e88 c0bd 887c 5abd 84fc 12be
00000100: 38fa 19be 87be e9bd 63c7 073e 5b2c bcbd
00000110: 09df ec3d 03bc 173e 6829 5e3d f78c 0dba
00000120: 82f9 90be 9b2f c5bc a654 1eb6 9d41 0439
00000130: 5615 de34 125d dcbd c379 b63d 0223 543d
00000140: 0efd 0eb6 0c82 4f3d 88a0 85bc c666 a93d
00000150: 89f0 9abc 68a1 9f37 954d 44b9 b8da 9b35
00000160: cdc3 a8bc bf34 21be 5c5e f9bd a0b0 8b34
00000170: 1a87 03bc 119e a3bd 9f94 063c 7f1c 153e
00000180: dbdc 5cbe dc42 cd3d d839 203d 17a0 07bd
00000190: 59b5 933d 2916 03bd 58fb 4ebd 31be 7e3c
000001a0: ed13 293d aae0 01be 7215 fcb3 d49a 9c3a
000001b0: 19af d9bc ac41 e3bd 36ca d5bd f6a1 59be
000001c0: b008 6335 ff44 773d f266 993c 3b94 2abe
000001d0: 5476 ca3c 6223 e435 48c1 48b9 6153 aa34
000001e0: 2059 6f3b 3033 c5bd 565c 153e 3022 4636
000001f0: f72d b53c 2dd9 a8bd ccae 5bbd 2fd8 163e
00000200: 9d17 45be dd56 64bc 03dd 893d 07df 85bd
00000210: 7886 4ebd bba9 0ebd 1e77 4dbe 2d8d 64bb
00000220: 65cd f4bd 6f48 31be a76d 2ab4 cf2b 0fbc
00000230: 9ad2 953b c4bd 4d3d b3cf 11bd b841 6cbd
00000240: 42bf 6ab7 c03d c7bd a124 88bc 4f39 613d
00000250: 2a23 62bc b62c 6cb6 3691 3bb7 5d0c 5933
00000260: c763 7abd 9fed f93c b679 04be 6bf6 2236
00000270: bc92 32bc b598 30be c2de 1e3d 1b2f 30be
00000280: 332f c3bd 05ac d23c 19dc 943d 71ec e5bc
00000290: 11ff 333e f3f7 0bbe 0b2b 87bd f341 df3a
000002a0: 195b 66be bdd5 a33d f4fb 9335 94eb 65bb
000002b0: 396c d93b 6bed 663d 54c7 833c 8f76 4bbe
000002c0: 4d76 1eb6 f824 95bd 0a2d 973c b3b5 263e
000002d0: eb87 c63c 5aeb 2836 cb28 6ab9 d66e 7834
000002e0: 8c9d 7fbd f6fe 383e 5f08 3f3e 9ff7 01b1
000002f0: 9406 9bbb a518 02be 5ed7 03bc 27af 143c
00000300: 4c16 10be 1f91 9a3c 7c03 dfbd 9446 2b3e
00000310: 150b 0b3e fe3a d6bd 1613 3fbd d37d 58b9
00000320: 1898 273d c27b cc3d aaa6 c133 c579 d2bb
00000330: 8d69 b335 bfab 1e3e 543e cdbb 8286 6f3c
00000340: 40d3 b035 96f4 153d 1568 b0bc ebd3 083e
00000350: ac3b cdbc 2f5d 4eb5 e178 6239 b879 05b3
00000360: 916f 4a3d e72a 15be bac5 093e d6a8 76b7
00000370: 1572 3d3c 6b12 20be 7f7b 31bd 7bc8 e83d
00000380: 44aa db3c 2a54 67bd 082e 91bd 0922 233e
00000390: cf6b 743d 6613 0bbe 4c1e 33be a230 05ba
000003a0: 2c85 b0bd 833d 00be ba86 7bb7 6299 10bb
000003b0: e2d9 c73a c2e2 94bd ab27 d9bd 292e 4dbe
000003c0: 03bd b2b5 5d6f 3bb9 26c5 a5bc 4655 24be
000003d0: a8ae c3bc 4386 69b7 8a35 0339 940c 0635
000003e0: 0e47 6fbd 1d51 32be 97bf f33d f92b e335
000003f0: d1ce 91bb f4b9 00be 6ff5 7dbd 8118 e4bb

gcn.lin_2.bias f4 [32]
0.039891392 0.102043845 -0.007815488 0.035950765 -0.17585617 -0.101195194 0.13440979 -0.2076286
0.03812539 -0.070302606 -0.03798594 -0.11743839 -0.04066147 0.11880519 0.12659326 0.15500614
0.048428126 -0.04067561 0.11741721 -0.063905925 0.124177 0.07472697 -0.25605515 0.053213935
-0.07045259 -0.07441911 -0.11333219 0.08107764 -0.21761502 -0.21059638 0.079838276 -0.14054309
00000000: 2865 233d 5dfc d03d 880c 00bc 1c41 133d
00000010: a413 34be 6d3f cfbd b8a2 093e 979c 54be
00000020: 5e29 1c3d d0fa 8fbd 2597 1bbd 8a83 f0bd
00000030: a48c 26bd 2350 f33d aaa1 013e eeb9 1e3e
00000040: 925c 463d 789b 26bd 6f78 f03d 1ce1 82bd
00000050: 8350 fe3d 740a 993d a919 83be dbf6 593d
00000060: 7349 90bd 0c69 98bd b51a e8bd 090c a63d
00000070: 79d6 5ebe 94a6 57be 4082 a33d 87ea 0fbe

nf.net.0.net_input.weight f4 [32, 1]
0.5896889 -0.813894 0.15704246 -0.34368974 0.9628701 0.543987 0.29783627 0.97794384
-0.3524486 0.44467908 0.5064889 0.95227784 -0.90470916 -0.98695344 0.6972435 -0.33987427
-0.013005641 -0.76512027 0.70595515 0.43083692 0.85958356 -0.7348583 0.6472662 -0.5233848
0.028199065 -0.30493772 -0.40914717 0.411465 -0.7139641 0.51359797 0.84823215 -0.6683242
00000000: daf5 163f 5b5b 50bf bdcf 203e 1af8 afbe
00000010: a87e 763f bb42 0b3f ff7d 983e 875a 7a3f
00000020: 2574 b4be faac e33e 42a9 013f 7bc8 733f
00000030: 059b 67bf fba8 7cbf 8d7e 323f 0004 aebe
00000040: 9d15 55bc ecde 43bf 7ab9 343f a896 dc3e
00000050: ab0d 5c3f ac1f 3cbf 3db3 253f 8cfc 05bf
00000060: ba01 e73c cc20 9cbe bd7b d1be 8aab d23e
00000070: 5ac6 36bf 287b 033f be25 593f 4b17 2bbf

nf.net.0.net_input.bias f4 [32]
1.0081743 0.2893298 -1.0271134 -0.2812474 -0.3172359 -0.53058743 0.12757647 -0.3291069
-0.45318782 0.27066317 0.6231229 0.844859 -0.5562777 -0.525135 -0.8355641 0.66227424
0.66737527 0.80720603 0.3546081 -0.40912175 -0.46449667 -0.87526685 -0.60099524 0.62392485
0.55643004 -0.35017696 0.030560892 0.2682475 -0.038721748 0.006313505 -0.7742424 0.6701523
00000000: db0b 813f 0923 943e 7478 83bf a9ff 8fbe
00000010: be6c a2be 94d4 07bf 68a3 023e b380 a8be
00000020: 3c08 e8be 5d94 8a3e fb84 1f3f ae48 583f
00000030: 3768 0ebf 3f6f 06bf 87e7 55bf ce8a 293f
00000040: 1bd9 2a3f 0ea5 4e3f 318f b53e 6878 d1be
00000050: 82d2 edbe 7d11 60bf d3da 19bf 8ab9 1f3f
00000060: 3372 0e3f 654a b3be d65a fa3c bc57 893e
00000070: b29a 1ebd 85e1 ce3b c034 46bf 1a8f 2b3f

nf.net.0.net_input.cond_weight f4 [32, 32]
0.016904863 0.04529593 0.11765973 0.090332136 0.059093293 0.14205666 0.18422097 -0.050355464
0.12748948 0.055741496 0.0792473 0.092289865 0.016899204 0.21062405 0.11120011 0.19904572
-0.012570098 0.10462936 0.16736545 0.1170644 0.14621985 0.1690919 -0.026431464 0.15005437
0.057413917 0.0124085145 -0.025870249 0.0126095945 -0.030917536 0.0068669347 0.071790025 -0.0032614202
0.17461944 0.097378194 0.025181914 0.0012864236 0.20139359 0.10026702 0.04135885 0.1163483
0.18452106 0.041464645 0.218203 0.11252767 0.20982763 0.057966292 0.12862222 -0.012822801
0.18165067 0.023517882 0.063932575 0.086260624 0.09957661 0.08359306 0.17500542 0.06395618
0.12316839 0.15881251 0.14195342 0.025721807 0.20740123 0.08749825 -0.008401929 0.20359328
0.20759563 0.014103162 -0.028980885 0.19911288 0.280612 0.0062948847 0.010033 0.18663429
0.0596861 0.16832338 0.21388808 0.17035356 0.26780093 -0.085039295 0.024987005 -0.018887876
0.14513774 0.11169888 -0.03661822 0.1157278 -0.024338322 -0.037282947 0.21423559 0.022893375
0.24373926 0.17864898 0.19495758 0.15655358 0.19154301 0.15945244 0.007442761 0.23371847
0.0287172 0.1640479 0.124569096 0.04880101 0.09591211 0.018819073 0.0374834 0.13343182
0.12432568 0.1301857 0.17693311 0.18243782 0.17948975 0.09930678 0.0015958797 0.08170926
0.0575195 0.09201649 0.0020361736 0.05313996 0.019816207 0.08480489 0.18988389 0.05536116
0.09573222 0.18452013 0.07162935 0.16008034 0.1097876 0.09666682 0.051491026 0.12989381
0.0959658 0.04979616 0.0682635 0.005398571 0.071443416 0.16197124 0.073386386 0.09392399
0.094260946 0.08058891 -0.025186718 0.113562025 0.043121062 0.17696409 0.11719026 0.07452768
-0.013463922 0.08945326 0.19737075 0.12858237 0.20446616 0.16537482 -0.0009964226 0.1299266
0.050595924 0.0857065 0.01634948 0.12312802 -0.031976175 0.101647116 0.119908266 0.06712208
0.07090004 0.08785322 0.11010265 0.15154342 0.19780406 -0.039880246 0.09028153 0.09196667
0.0965815 0.08327936 0.18052271 0.14312735 0.11796571 0.081179805 -0.01848068 0.049055725
0.08818721 0.12040775 0.012088959 0.083184615 0.009897077 -0.01887417 0.22602004 0.17853032
0.17001078 0.1806561 0.20513628 0.086169764 0.13206597 0.23908722 0.021553343 0.22821428
0.051158458 0.13987923 0.048531365 0.095531546 0.093683854 -0.0004155625 0.0007377992 0.17486607
0.19329098 0.15632941 0.18583019 0.047736075 0.20626128 -0.01651562 0.13029742 0.05945655
0.14583342 0.0281465 0.003384578 0.16714679 0.12766138 0.11748073 0.1926416 0.116133116
0.102924995 0.059958834 0.19142106 0.05278177 0.1010505 0.16736743 -0.02418617 0.1603514
0.10516097 0.09730435 0.050479997 0.09691871 0.045927644 -0.005863673 0.065613575 0.044972196
0.06739581 0.086377904 0.04058165 0.02175461 0.03553267 0.08383751 0.102445446 -0.0042226426
0.08863133 0.1241951 0.15832534 0.16239062 0.024958594 0.100607455 0.083651595 0.22470567
0.01435694 0.042750016 0.07102536 0.09712485 0.06310311 0.1570815 0.02179192 0.017847482
00000000: 117c 8a3c 3a88 393d 96f7 f03d 0e00 b93d
00000010: cf0b 723d 4d77 113e 6ca4 3c3e 8841 4ebd
00000020: 9a8c 023e 3251 643d 694c a23d 7802 bd3d
00000030: 3370 8a3c d5ad 573e e2bc e33d a4d2 4b3e
00000040: d0f2 4dbc eb47 d63d d961 2b3e 76bf ef3d
00000050: a8ba 153e 6d26 2d3e cc86 d8bc daa7 193e
00000060: db2a 6b3d 154d 4b3c d8ed d3bc 7998 4e3c
00000070: c646 fdbc 0604 e13b a606 933d 8dbd 55bb
00000080: 70cf 323e 386e c73d 4d4a ce3c 379d a83a
00000090: 1f3a 4e3e cc58 cd3d e667 293d 0448 ee3d
000000a0: 17f3 3c3e d5d6 293d 9b70 5f3e e874 e63d
000000b0: 0edd 563e 106e 6d3d 8bb5 033e ba16 52bc
000000c0: a202 3a3e 93a8 c03c 15ef 823d 69a9 b03d
000000d0: d2ee cb3d d732 ab3d 9f34 333e 75fb 823d
000000e0: b53f fc3d bf9f 223e 3d5c 113e 8ab6 d23c
000000f0: fd60 543e 4832 b33d 3fa8 09bc c27a 503e
00000100: f393 543e f310 673c 5269 edbc 3fe4 4b3e
00000110: 60ac 8f3e 5245 ce3b 7461 243c 0f1d 3f3e
00000120: 6979 743d f75c 2c3e 7a05 5b3e 2a71 2e3e
00000130: 341d 893e 1529 aebd 8cb1 cc3c bfba 9abc
00000140: fd9e 143e 62c2 e43d fdfc 15bd b202 ed3d
00000150: 2961 c7bc 01b6 18bd 9360 5b3e e38a bb3c
00000160: c996 793e c2ef 363e f6a2 473e 954f 203e
00000170: da23 443e 8047 233e 68e2 f33b e553 6f3e
00000180: 5540 eb3c 2cfc 273e 151e ff3d 91e3 473d
00000190: 916d c43d 752a 9a3c 3288 193d 5aa2 083e
000001a0: 769e fe3d 664f 053e f42d 353e fbd0 3a3e
000001b0: 29cc 373e 5a61 cb3d d62c d13a 2f57 a73d
000001c0: 9199 6b3d 2473 bc3d 5371 053b 49a9 593d
000001d0: 9955 a23c 30ae ad3d ec70 423e 62c2 623d
000001e0: 410f c43d d8f2 3c3e 69b2 923d 1aec 233e
000001f0: 52d8 e03d 41f9 c53d 41e8 523d e202 053e
00000200: b889 c43d 0ff7 4b3d bccd 8b3d 7fe6 b03b
00000210: ed50 923d cadb 253e 9a4b 963d 395b c03d
00000220: e20b c13d cc0b a53d 6054 cebc 3593 e83d
00000230: b69f 303d 1336 353e 7201 f03d f8a1 983d
00000240: c897 5cbc 4533 b73d 8f1b 4a3e 19ab 033e
00000250: 945f 513e 0458 293e 659a 82ba 7b0b 053e
00000260: ac3d 4f3d e486 af3d 58ef 853c 8b2a fc3d
00000270: 73f9 02bd 5d2c d03d 7792 f53d 4d77 893d
00000280: 0a34 913d 64ec b33d 807d e13d 332e 1b3e
00000290: 268d 4a3e 7859 23bd 86e5 b83d 0559 bc3d
000002a0: 85cc c53d 5e8e aa3d f2da 383e fa8f 123e
000002b0: 0298 f13d 9941 a63d cc64 97bc a8ee 483d
000002c0: 7f9b b43d 5798 f63d c510 463c b25c aa3d
000002d0: 5a27 223c 019e 9abc cc71 673e a7d0 363e
000002e0: 4e17 2e3e eafd 383e 3f0f 523e c679 b03d
000002f0: 4d3c 073e 48d3 743e a390 b03c 01b1 693e
00000300: 888b 513d 803c 0f3e d3c8 463d 0ba6 c33d
00000310: 52dd bf3d dbdf d9b9 de68 413a 1710 333e
00000320: 12ee 453e d114 203e 454a 3e3e e786 433d
00000330: 2836 533e c44b 87bc b06c 053e b688 733d
00000340: 5b55 153e 7d93 e63c cccf 5d3b 8728 2b3e
00000350: aab9 023e bd99 f03d d743 453e 33d7 ed3d
00000360: 57ca d23d 6597 753d e203 443e b231 583d
00000370: 91f3 ce3d 5e62 2b3e 1322 c6bc 2833 243e
00000380: a25e d73d 8147 c73d 1dc4 4e3d 517d c63d
00000390: a01e 3c3d 0e24 c0bb 6960 863d c434 383d
000003a0: d006 8a3d e6e6 b03d f238 263d b936 b23c
000003b0: b48a 113d 00b3 ab3d ebce d13d 185e 8abb
000003c0: 5884 b53d 005a fe3d 0a20 223e ba49 263e
000003d0: f775 cc3c 480b ce3d 8751 ab3d 3e19 663e
000003e0: 5f39 6b3c a41a 2f3d be75 913d 65e9 c63d
000003f0: 343c 813d f9d9 203e f884 b23c e234 923c

nf.net.0.net_input.mask f4 [32, 1]
1.0 1.0 1.0 1.0 1.0 1.0 1.0 1.0
1.0 1.0 1.0 1.0 1.0 1.0 1.0 1.0
1.0 1.0 1.0 1.0 1.0 1.0 1.0 1.0
1.0 1.0 1.0 1.0 1.0 1.0 1.0 1.0
00000000: 0000 803f 0000 803f 0000 803f 0000 803f
00000010: 0000 803f 0000 803f 0000 803f 0000 803f
00000020: 0000 803f 0000 803f 0000 803f 0000 803f
00000030: 0000 803f 0000 803f 0000 803f 0000 803f
00000040: 0000 803f 0000 803f 0000 803f 0000 803f
00000050: 0000 803f 0000 803f 0000 803f 0000 803f
00000060: 0000 803f 0000 803f 0000 803f 0000 803f
00000070: 0000 803f 0000 803f 0000 803f 0000 803f
